checkpoints-public-cot/checkpoint-20/value_head.pt (torch, 10109 bytes, 1 tensors)

weight f4 [1, 2048]
-0.00018432885 0.0002882666 -0.00027049208 -0.00038260617 -2.2630526e-05 0.000114920105 -0.00045189948 0.00036206338
0.00017017462 -0.00017635514 -0.00045799988 0.00030217733 -0.00048659262 1.5873191e-05 -0.00015854064 -0.00010684172
-0.00012184296 0.00046019503 0.00030856425 2.2714314e-05 -0.00047868252 0.00024936209 -0.0003567258 0.00061923167
3.697856e-05 3.01705e-06 -0.00025354873 8.896768e-05 -0.0001789445 -0.00028001363 0.0005498762 0.00059289666
0.00016280686 0.000703404 0.00014028348 -0.00024985007 -0.0003424329 -0.0005117783 -0.00016379131 -0.00037370968
0.0007530665 -8.001843e-05 0.00014605622 0.0004871655 0.0002189429 0.00046827443 -0.00025621135 8.8503635e-05
0.0005335744 5.1781357e-05 -0.00073152076 -0.00019775715 1.0588755e-05 0.00024070949 -0.000488823 -4.673311e-05
-3.78476e-05 -0.00018948944 -0.0004448888 -0.00033615725 8.112181e-05 -1.0177489e-05 -0.00045982536 -0.00037393774
0.0004550417 0.00023814455 -0.00035144817 0.000339002 -4.0758823e-05 0.0002793479 -0.000344922 0.00010560468
-3.2774256e-05 -0.00049957464 -0.0010906033 0.0004455931 -0.00033331435 -4.1029667e-05 -7.235385e-05 -8.168344e-05
-0.00055255496 -9.710826e-06 0.00025948675 -0.00033053473 -0.0003825356 -4.1212817e-05 0.000103840255 -8.234589e-05
-0.00047897486 0.00012369362 -0.00017279043 0.00048030718 0.0004054703 -1.8039214e-05 0.00023830017 0.00034654548
-0.00022079438 -0.00022066783 -0.00012737417 0.00038409964 6.27252e-05 -0.0005539274 -0.0006819702 -8.292711e-05
-0.00019563062 0.00025118247 -0.0002869432 -0.00029402098 0.00024163362 0.00017037363 0.00048506484 0.00022435983
4.64923e-07 0.00041805132 4.0119015e-05 0.00020232124 -0.000103157035 -0.0001012374 0.0003176547 -0.00023005928
-0.0005987623 0.00014470333 -0.00040143382 -8.718071e-05 0.0002930108 0.00010790926 -0.00032785544 -4.0635932e-05
-0.0006336654 9.3521434e-05 0.00027264096 7.312448e-05 -0.00049638894 0.0006436245 -0.00048715726 0.0003021403
-0.00042850806 0.0004917946 1.1965569e-06 -0.00018108195 -7.171395e-05 -0.00057948125 0.00029753524 5.8836882e-05
-0.00014111231 -6.695526e-05 -0.00034794913 -0.00056846143 -0.00034669752 -0.000107741645 -0.0003232517 2.9733494e-05
0.0004012879 -0.00011893897 0.0002230298 -0.0001332437 -3.1219304e-05 0.00015557466 -5.2235067e-05 7.9586534e-05
-0.00029507696 -0.0001728029 2.0474843e-05 -0.0004912483 -0.0002834742 0.00014587535 0.00030472694 0.00060100347
6.330416e-05 -0.00017527542 1.5313428e-05 0.00040343325 2.2766691e-05 -0.00038178544 -6.423948e-05 -0.00029004383
-0.00067973835 -0.00013550659 -0.00032806248 0.00037967289 -0.00031488942 -2.2611797e-05 3.9284023e-05 -0.00033898983
-0.00019636049 -0.00028834224 -6.8809764e-05 2.9991788e-05 0.00042547987 0.00021110025 -0.00014436396 -0.0002911982
0.00032673051 -3.686844e-06 -0.0002101988 -0.00052879116 -9.561915e-05 -1.6330632e-05 -0.00013102315 -0.0006065176
2.9547573e-05 -0.00018145055 -9.884409e-05 0.00047669 4.2309606e-05 0.00043148096 -0.00076794263 0.00012249095
0.00027965932 -0.000178205 8.9585046e-05 0.0005071484 0.0003711213 -0.00025601566 -0.00015297323 0.0005001962
0.00030634206 0.00024585892 0.00045947483 0.0002281024 0.0003950998 0.000618441 -0.00046127412 0.0002002281
-0.00028141218 -0.0004455919 0.00031476968 0.0001505336 -0.00027425576 0.000101571364 7.815157e-05 0.00015855266
-0.00030998598 2.8630915e-05 2.8396735e-06 0.0003395472 -0.00037128374 0.00032582786 6.0793835e-05 -1.0838368e-05
0.0004098924 0.00025664488 0.00020744947 0.00014051737 -0.00012103029 -0.00026752465 -0.00022664579 4.0065192e-06
0.0006627732 0.0003095181 0.00053576956 0.00045961828 0.00015125393 -0.0002558419 -0.00021763568 0.00034584472
00000000: 6648 41b9 7d22 9739 d5d0 8db9 8898 c8b9
00000010: afd6 bdb7 4301 f138 ecec ecb9 53d3 bd39
00000020: e770 3239 f9eb 38b9 b41f f0b9 8e6d 9e39
00000030: 5b1d ffb9 6b27 8537 ee3d 26b9 3610 e0b8
00000040: f185 ffb8 5546 f139 cbc6 a139 9e8a be37
00000050: aef7 fab9 d0bc 8239 ed06 bbb9 ef53 223a
00000060: 6d19 1b38 8678 4a36 bcee 84b9 2994 ba38
00000070: 0ca3 3bb9 cbce 92b9 9125 103a 9f6c 1b3a
00000080: 22b7 2a39 a564 383a 0f19 1339 4ffe 82b9
00000090: 9188 b3b9 dc28 06ba 65bf 2bb9 77ee c3b9
000000a0: 7069 453a 91cf a7b8 ab26 1939 3f6a ff39
000000b0: 0a94 6539 bb82 f539 1b54 86b9 079b b938
000000c0: 92df 0b3a cf2f 5938 87c3 3fba 085d 4fb9
000000d0: 5ba6 3137 f666 7c39 5b24 00ba 4b03 44b8
000000e0: 8dbe 1eb8 afb1 46b9 f73f e9b9 433e b0b9
000000f0: f11f aa38 fbbf 2ab7 b714 f1b9 130d c4b9
00000100: aa92 ee39 71b6 7939 9342 b8b9 14bc b139
00000110: 74f4 2ab8 7175 9239 a6d6 b4b9 1578 dd38
00000120: 1777 09b8 e3f5 02ba 93f2 8eba 7e9e e939
00000130: b2c0 aeb9 4517 2cb8 adbc 97b8 774d abb8
00000140: 56d9 10ba aeeb 22b7 b90b 8839 9f4b adb9
00000150: 0f8f c8b9 eddb 2cb8 d0c4 d938 1db1 acb8
00000160: eb1e fbb9 c1b3 0139 142f 35b9 bdd1 fb39
00000170: 4d95 d439 eb52 97b7 37e0 7939 8cb0 b539
00000180: 0a85 67b9 1263 67b9 be8f 05b9 fb60 c939
00000190: 568b 8338 7035 11ba 3fc6 32ba 27e9 adb8
000001a0: 3222 4db9 24b1 8339 dd70 96b9 d426 9ab9
000001b0: 085f 7d39 53a6 3239 4d50 fe39 2242 6b39
000001c0: 889a f934 e62d db39 7745 2838 3226 5439
000001d0: 0356 d8b8 6a4f d4b8 e48a a639 113c 71b9
000001e0: 42f6 1cba 81bb 1739 8977 d2b9 cad4 b6b8
000001f0: 3e9f 9939 584d e238 03e4 abb9 8070 2ab8
00000200: 911c 26ba f020 c438 40f1 8e39 685a 9938
00000210: 1920 02ba e9b8 283a 2469 ffb9 9668 9e39
00000220: 61a9 e0b9 c7eb 003a 6299 a035 d1e0 3db9
00000230: 2265 96b8 54e8 17ba 81fe 9b39 9fc7 7638
00000240: 8cf7 13b9 556a 8cb8 f16c b6b9 cd04 15ba
00000250: f4c4 b5b9 5bf3 e1b8 1c7a a9b9 316c f937
00000260: f363 d239 e06e f9b8 1bdd 6939 55b7 0bb9
00000270: 79f1 02b8 c121 2339 fa16 5bb8 b2e7 a638
00000280: 8fb4 9ab9 6d32 35b9 64c1 ab37 1ec7 00ba
00000290: 439f 94b9 1ef6 1839 c2c3 9f39 a98c 1d3a
000002a0: 2ac2 8438 23ca 37b9 5675 8037 e583 d339
000002b0: 19fb be37 602a c8b9 4fb8 86b8 0611 98b9
000002c0: 7830 32ba c616 0eb9 cdff abb9 d50e c739
000002d0: be17 a5b9 77ae bdb7 e6c4 2438 72ba b1b9
000002e0: 1ee6 4db9 a42c 97b9 f64d 90b8 e096 fb37
000002f0: f112 df39 cb5a 5d39 6860 17b9 f6ab 98b9
00000300: 074d ab39 7f6b 77b6 d068 5cb9 939e 0aba
00000310: 2487 c8b8 c4fd 88b7 4263 09b9 b5fe 1eba
00000320: eedc f737 c343 3eb9 844a cfb8 40ec f939
00000330: 9875 3138 6538 e239 c24f 49ba ea70 0039
00000340: 3d9f 9239 8adc 3ab9 9bdf bb38 27f2 043a
00000350: 0f93 c239 d739 86b9 7067 20b9 991f 033a
00000360: 899c a039 a0e6 8039 abe5 f039 c62e 6f39
00000370: 6625 cf39 df1e 223a 2ad7 f1b9 52f4 5139
00000380: 818a 93b9 559e e9b9 ac07 a539 8ed8 1d39
00000390: fcc9 8fb9 b602 d538 4ee5 a338 2841 2639
000003a0: 9d85 a2b9 6c2c f037 3891 3e36 4105 b239
000003b0: dca8 c2b9 e0d3 aa39 e2fc 7e38 70d6 35b7
000003c0: d4e6 d639 4b8e 8639 cb86 5939 d857 1339
000003d0: a4d1 fdb8 8d42 8cb9 c4a7 6db9 bd6f 8636
000003e0: f5bd 2d3a d146 a239 e372 0c3a ecf8 f039
000003f0: eb99 1e39 8522 86b9 2235 64b9 7e52 b539
