checkpoints-private-cot/checkpoint-15/value_head.pt (torch, 10109 bytes, 1 tensors)

weight f4 [1, 2048]
0	0xb92d69de	-0.00016538004
1	0x39bf9529	0.00036541492
2	0x38c10c79	9.2052804e-05
3	0xba46252c	-0.00075586396
4	0xb9b6662d	-0.00034789872
5	0xb9b97f8b	-0.00035380977
6	0xb8d86570	-0.00010318577
7	0x3a2e81d2	0.0006656918
8	0xb98aa4c0	-0.0002644416
9	0xb99f2e52	-0.00030361355
10	0xb9ced581	-0.00039450455
11	0x39ac4023	0.00032854182
12	0xb9d2370b	-0.00040095331
13	0x384fbe40	4.952983e-05
14	0xb9a08fbe	-0.00030624674
15	0xb69adb7e	-4.61511e-06
16	0x39955c19	0.00028488113
17	0x36bea5a7	5.6817257e-06
18	0x3713ca70	8.809016e-06
19	0x3890c707	6.903527e-05
20	0x3a00cd04	0.0004913362
21	0x39cce282	0.00039078674
22	0x3a2414fa	0.0006259229
23	0x380a1bcc	3.292765e-05
24	0x392bc035	0.00016379434
25	0xb97ad435	-0.00023920911
26	0xb9bf9f1a	-0.000365489
27	0x39c59e8d	0.00037692898
28	0xb8733f2b	-5.7994544e-05
29	0x39a6d317	0.00031819261
30	0x398f0f79	0.00027286613
31	0x39dd698b	0.0004223104
32	0xb991a2ea	-0.00027777936
33	0x3911c133	0.0001390025
34	0xb8c50cb7	-9.39606e-05
35	0xb98259f2	-0.00024862547
36	0x3a1e67c9	0.0006042687
37	0xba6022ba	-0.00085500965
38	0xb9acad9a	-0.0003293574
39	0xb95922a7	-0.00020707642
40	0x394f36bd	0.0001976145
41	0x39f6e95e	0.00047094648
42	0x396b0a37	0.00022415152
43	0x39984b26	0.0002904769
44	0x3917dc41	0.00014482533
45	0x38fc397f	0.00012027006
46	0xb7804f3f	-1.529569e-05
47	0x399ce413	0.00029924567
48	0x39291f39	0.00016128727
49	0xb9f14f50	-0.00046026194
50	0xb8a6fac0	-7.962203e-05
51	0xb9c26c95	-0.00037083463
52	0x398df730	0.00027077785
53	0x3918c144	0.00014567847
54	0x37d3a7c2	2.5231278e-05
55	0xb8fef2ba	-0.00012156875
56	0xb8b3323e	-8.5447435e-05
57	0xb8ff73a5	-0.00012180888
58	0x390a792e	0.00013205849
59	0xb99500b0	-0.00028420007
60	0x398c5c24	0.0002677153
61	0xb8dcc712	-0.00010527497
62	0xb9850f74	-0.0002537925
63	0x3900db14	0.00012288644
64	0x39d50b25	0.0004063483
65	0xb9ce3878	-0.00039333454
66	0xb9abab1e	-0.00032743154
67	0xb8c3ee1d	-9.342677e-05
68	0x3894fa3e	7.103801e-05
69	0x39b4235a	0.00034358614
70	0xb8f9d7a6	-0.00011913413
71	0x39cf42ba	0.00039531832
72	0xb99fcf64	-0.0003048136
73	0xb8706b64	-5.7320474e-05
74	0xb803f6d7	-3.146272e-05
75	0x392a81fa	0.00016260883
76	0xb9413e1c	-0.00018429052
77	0xba263a29	-0.0006341064
78	0x38fa754e	0.00011942779
79	0x399b5dcc	0.00029633788
80	0xb9adb5c9	-0.00033132572
81	0xb82a240b	-4.0564726e-05
82	0xb74334ae	-1.1635171e-05
83	0x393ce3b6	0.00018013906
84	0xb93c83e8	-0.00017978216
85	0xb90333d2	-0.00012512438
86	0xb95b7383	-0.00020928499
87	0xb9491d3e	-0.00019179747
88	0xba045659	-0.0005048267
89	0xb95e51b5	-0.00021202008
90	0xba472adc	-0.0007597634
91	0x39192cdf	0.00014607933
92	0x3946db97	0.00018964555
93	0x394f5435	0.00019772428
94	0xb9769bbb	-0.00023518402
95	0x39c0cf48	0.0003677553
96	0xb9b8f676	-0.00035278843
97	0xb9e5a657	-0.00043802217
98	0x3a132d2c	0.0005614336
99	0x38b8a28d	8.804081e-05
100	0x3989ef46	0.0002630895
101	0xb97a49df	-0.00023869377
102	0xb9e5af68	-0.00043808972
103	0x3875de53	5.8619607e-05
104	0xb9bbd218	-0.00035823951
105	0x38e06397	0.000106997024
106	0xb9f81b2f	-0.000473225
107	0x39aadd93	0.00032590012
108	0xb9316759	-0.00016918535
109	0x36c94322	5.998082e-06
110	0xb907b111	-0.00012940566
111	0x3947ab93	0.00019042035
112	0xb9ea4ef5	-0.00044690786
113	0xb907be14	-0.00012945413
114	0x3987dcd8	0.00025913748
115	0xb9378ab1	-0.00017503907
116	0xb91d4c13	-0.00015001027
117	0xb957daef	-0.00020585557
118	0xba32f878	-0.0006827186
119	0xb828915c	-4.0189698e-05
120	0xba15117e	-0.00056865055
121	0x3999a942	0.0002930854
122	0xb99348af	-0.00028092178
123	0xb98bfffb	-0.00026702866
124	0xb9d92f78	-0.00041424832
125	0x381375a4	3.5157092e-05
126	0xb9371d5d	-0.00017463179
127	0xb8c8fb8c	-9.5835974e-05
128	0xba1b5cf9	-0.0005926635
129	0x38c3865b	9.32335e-05
130	0xb996511f	-0.0002867067
131	0x37f313b6	2.8977036e-05
132	0xb96f4bc5	-0.00022821043
133	0x393506b8	0.00017264008
134	0xb91e1c99	-0.00015078708
135	0x39b22a3b	0.0003398227
136	0xb8c120b0	-9.209046e-05
137	0x366c0ca4	3.5174098e-06
138	0xb809c9ee	-3.2851407e-05
139	0xb7e8f115	-2.7768818e-05
140	0x39e2f2b4	0.00043286907
141	0xb939e8f5	-0.00017729758
142	0x39d16687	0.00039939975
143	0x39bdeffe	0.00036227697
144	0xb98a863d	-0.00026421426
145	0xb9ba67cb	-0.00035554016
146	0xb9b5f767	-0.0003470734
147	0x375d4ead	1.3190945e-05
148	0xb89fd2c5	-7.62097e-05
149	0xb82acc95	-4.072169e-05
150	0xb998e107	-0.00029159358
151	0xba276a7d	-0.00063864124
152	0xb8bdd797	-9.052379e-05
153	0xb9a40cfd	-0.00031290195
154	0x3889efa2	6.577304e-05
155	0x39180291	0.00014496806
156	0xba10b977	-0.00055208005
157	0x3896c887	7.1899085e-05
158	0xba1bb981	-0.0005940423
159	0xb9296613	-0.00016155122
160	0x38f8e25c	0.00011867724
161	0xb8f02484	-0.00011450893
162	0x3a059a90	0.0005096579
163	0xb9441c14	-0.00018702477
164	0xb9bd7d21	-0.00036142117
165	0x392264e0	0.00015487103
166	0x39545293	0.00020248657
167	0x39998fcf	0.0002928958
168	0x390530f6	0.00012702108
169	0x3a50ed75	0.0007969954
170	0xb9d3c1fa	-0.0004038958
171	0xb9ca9299	-0.00038637666
172	0x39a3bd1d	0.00031230683
173	0xb9b65a28	-0.00034780917
174	0xb82a25b6	-4.056628e-05
175	0xb9a95660	-0.00032298546
176	0xb9081cfe	-0.00012980771
177	0xba008179	-0.00049021054
178	0xb9385663	-0.00017579789
179	0xb796f560	-1.7995655e-05
180	0x3a0fcabf	0.00054852286
181	0xb866e23f	-5.504698e-05
182	0xb8de4474	-0.00010598535
183	0xb9897c99	-0.0002622351
184	0xb90e9496	-0.00013597528
185	0x399623b2	0.00028636825
186	0x3959041f	0.00020696268
187	0xb9352cdd	-0.00017278218
188	0xb9d0657f	-0.00039748472
189	0x393854d1	0.00017579204
190	0x38dbcd17	0.00010480935
191	0xba26ace1	-0.00063581584
192	0x399fce30	0.00030480465
193	0xb99f0563	-0.00030330857
194	0xb882949d	-6.2265644e-05
195	0xb9b3effa	-0.00034320337
196	0xb9aac964	-0.00032574974
197	0xb9620b99	-0.0002155736
198	0x38cb8184	9.7039185e-05
199	0x38106dde	3.4434597e-05
200	0xb96227cf	-0.0002156787
201	0x392bda80	0.00016389228
202	0x399554cf	0.00028482682
203	0x39245aeb	0.00015674128
204	0x39b51baa	0.00034543622
205	0x3a7b09d4	0.00095763546
206	0xb983ace3	-0.00025115078
207	0x3a312db3	0.0006758824
208	0x39e27846	0.0004319569
209	0x398db764	0.00027030252
210	0x39b5e287	0.00034691786
211	0x395e1ab5	0.00021181519
212	0x39397ffb	0.00017690651
213	0xb99c9c04	-0.0002987088
214	0xba41a610	-0.0007387111
215	0x39db634b	0.00041844914
216	0x3a0a8878	0.00052846177
217	0x3815e275	3.5735273e-05
218	0x3922a7a7	0.0001551198
219	0xb98a2b10	-0.00026353495
220	0x3a11b769	0.0005558641
221	0xb76992cc	-1.3922061e-05
222	0x392d9e56	0.0001655755
223	0xba5856c5	-0.0008252676
224	0xb9570b46	-0.00020508197
225	0xba3343bd	-0.0006838402
226	0xb8c8dc4f	-9.577779e-05
227	0x3a1d5df0	0.00060030725
228	0xb96204d5	-0.0002155484
229	0x399f03eb	0.00030329762
230	0xb9a53c67	-0.00031516256
231	0x39d9d396	0.0004154711
232	0x375a19a2	1.2999781e-05
233	0xb9147305	-0.00014157228
234	0x3828ff19	4.02919e-05
235	0x39bac64b	0.00035624424
236	0xba474a82	-0.000760235
237	0x390595b3	0.00012739636
238	0x38329edc	4.2586456e-05
239	0xb98531ae	-0.0002540475
240	0xb9cf4598	-0.00039533968
241	0xb9a1fc69	-0.00030896373
242	0xb964103c	-0.00021749822
243	0x396e5f64	0.00022732985
244	0x399970cd	0.00029266477
245	0xb9901632	-0.00027482357
246	0xb8e93e4a	-0.00011121908
247	0x3952ade0	0.00020091934
248	0x3a462b3d	0.00075595436
249	0x3905645a	0.00012721252
250	0x3a559e10	0.00081488583
251	0x39ce938a	0.00039401307
252	0x39a56809	0.00031548765
253	0xb91af6eb	-0.00014778569
254	0x37305073	1.05091485e-05
255	0x3861597a	5.3727512e-05
