checkpoints-private-cot/checkpoint-999/value_head.pt (torch, 10109 bytes, 1 tensors)

weight f4 [1, 2048]
-0.00015885702 0.0003584765 9.4883115e-05 -0.0007497509 -0.0003508064 -0.00034778067 -0.000103954655 0.0006580664
-0.00025930913 -0.00029994766 -0.0003889166 0.00032374138 -0.0003951612 4.5202603e-05 -0.00030240588 -9.673288e-08
0.00028288012 9.717058e-07 1.7606899e-06 7.0144495e-05 0.0004915283 0.00038392187 0.00062906806 3.4913523e-05
0.00016161766 -0.00023879907 -0.0003573808 0.0003719813 -5.2099407e-05 0.00031671172 0.00026665872 0.00041762585
-0.00027909217 0.00013542875 -9.048029e-05 -0.00024196351 0.00060298713 -0.0008482782 -0.00032416033 -0.00020397526
0.00019120742 0.00046695027 0.00022418908 0.0002891976 0.00014036699 0.00011627868 -1.850057e-05 0.00030111716
0.00015340281 -0.0004582238 -7.3821335e-05 -0.00036839425 0.00026533546 0.00013950901 3.158209e-05 -0.00011715294
-8.4161875e-05 -0.00011689109 0.00013743821 -0.00028826683 0.0002654045 -9.9288634e-05 -0.00024674684 0.00012657016
0.00040130637 -0.00038983612 -0.0003269602 -9.823207e-05 7.402818e-05 0.00033552025 -0.00012000847 0.0003955548
-0.0002980995 -5.307222e-05 -2.890461e-05 0.00015828837 -0.00017909045 -0.0006375017 0.00011803347 0.0002933946
-0.00033069146 -3.5090627e-05 -1.1525748e-05 0.00018475122 -0.0001794586 -0.00011993765 -0.00021387436 -0.00019424596
-0.00050793425 -0.00021121207 -0.0007549662 0.00013995715 0.00018569533 0.00019985191 -0.0002294425 0.00036317122
-0.00035616415 -0.00043154226 0.0005556362 8.042719e-05 0.00026120886 -0.00023230015 -0.00043602232 6.53198e-05
-0.00035612338 0.00010413847 -0.00047262677 0.00032512023 -0.0001722545 2.5774284e-06 -0.00013698365 0.0001840369
-0.00044318728 -0.00012992894 0.000253403 -0.00017546605 -0.00014690653 -0.00019866947 -0.00067316706 -3.6377747e-05
-0.000563029 0.00028815767 -0.00027417645 -0.0002627219 -0.00041670277 2.7525406e-05 -0.00016833263 -9.1497706e-05
-0.0005857941 9.725692e-05 -0.00028730484 3.319101e-05 -0.00022515161 0.00016679286 -0.00014266741 0.00033463625
-8.53079e-05 4.991466e-07 -2.9442677e-05 -2.1260339e-05 0.00042543054 -0.0001732176 0.00039598104 0.0003609515
-0.0002585338 -0.0003515665 -0.0003412281 1.7733826e-05 -7.042971e-05 -3.382846e-05 -0.00029085166 -0.00063275325
-9.728046e-05 -0.0003107281 5.8993166e-05 0.00014925856 -0.0005524109 7.5527234e-05 -0.0005869488 -0.0001577131
0.00011927067 -0.000109170425 0.0005058332 -0.00018090273 -0.00035519942 0.00014860138 0.00019693696 0.0002889946
0.0001238029 0.00079729705 -0.000401112 -0.00038152328 0.000303706 -0.00034631664 -4.6742636e-05 -0.0003202503
-0.00012663097 -0.0004849606 -0.00016968469 -2.6007187e-05 0.0005427806 -6.2208856e-05 -0.00010202864 -0.0002559905
-0.00013461662 0.00028000883 0.0002087713 -0.00017264267 -0.00039875903 0.00017219759 0.00010753278 -0.00062966114
0.00030304608 -0.00029603494 -5.8030117e-05 -0.0003396281 -0.00031731237 -0.00021687865 0.00010089581 3.860464e-05
-0.00021191969 0.00016502867 0.00027872014 0.00015024985 0.00034142804 0.00095183 -0.00024430515 0.00066962244
0.00042795722 0.00026572196 0.00034841747 0.00020588716 0.00017138703 -0.0002981969 -0.0007341041 0.00042232653
0.00052714 3.6558802e-05 0.00015209391 -0.00027036294 0.00055349665 -1.9715486e-05 0.000170593 -0.0008181154
-0.00020141089 -0.00067953597 -0.000100986756 0.0005932871 -0.00020966971 0.00030617215 -0.00031327008 0.00040888906
1.1157362e-05 -0.00013403657 4.6133315e-05 0.00035123737 -0.00075310346 0.00012361145 3.9108203e-05 -0.000249433
-0.00039771432 -0.00030780426 -0.00021198875 0.00022954232 0.0002915942 -0.0002708105 -0.00011531226 0.00019382969
0.00074982445 0.00012852313 0.00080898195 0.00038793855 0.0003089003 -0.0001487729 1.3032867e-05 5.1671224e-05
00000000: db92 26b9 e7f1 bb39 fcfb c638 ee8a 44ba
00000010: 70ec b7b9 5556 b6b9 3b02 dab8 1782 2c3a
00000020: e2f3 87b9 4b42 9db9 81e7 cbb9 d5bb a939
00000030: a32d cfb9 ed97 3d38 3b8c 9eb9 77bb cfb3
00000040: 874f 9439 8f6b 8235 d850 ec35 8a1a 9338
00000050: e8d9 003a 1f49 c939 0be8 243a 1c70 1238
00000060: e977 2939 2366 7ab9 d75e bbb9 7c06 c339
00000070: 5085 5ab8 540c a639 54ce 8b39 cbf4 da39
00000080: 1e53 92b9 e101 0e39 3cc0 bdb8 96b7 7db9
00000090: c811 1e3a fd5e 5eba 10f4 a9b9 31e2 55b9
000000a0: da7e 4839 01d1 f439 4c14 6b39 729f 9739
000000b0: 7a2f 1339 a4da f338 ac31 9bb7 43df 9d39
000000c0: c1da 2039 c23d f0b9 87d0 9ab8 0a25 c1b9
000000d0: b91c 8b39 2a49 1239 0377 0438 01b0 f5b8
000000e0: 1080 b0b8 6d23 f5b8 4a1d 1039 8522 97b9
000000f0: fd25 8b39 2e39 d0b8 cd5d 81b9 ebb7 0439
00000100: 6e66 d239 eb62 ccb9 db6b abb9 f101 ceb8
00000110: 943f 9b38 c4e8 af39 0fad fbb8 7762 cf39
00000120: 3d4a 9cb9 dd99 5eb8 2d78 f2b7 36fa 2539
00000130: 3aca 3bb9 041e 27ba bd88 f738 c2d2 9939
00000140: a860 adb9 462e 13b8 b65e 41b7 c7b9 4139
00000150: 0d2d 3cb9 0987 fbb8 7643 60b9 81ae 4bb9
00000160: e426 05ba cf78 5db9 ede8 45ba 76c1 1239
00000170: 36b7 4239 578f 5139 8196 70b9 0468 be39
00000180: 8bbb bab9 9f40 e2b9 1da8 113a 05ab a838
00000190: dcf2 8839 9995 73b9 ed99 e4b9 4dfc 8838
000001a0: 12b6 bab9 ea64 da38 e4ca f7b9 e674 aa39
000001b0: 379f 34b9 e2f7 2c36 45a3 0fb9 07fa 4039
000001c0: 975b e8b9 893d 08b9 2ddb 8439 4ffd 37b9
000001d0: ec0a 1ab9 ee51 50b9 7a77 30ba 4f94 18b8
000001e0: 3d98 13ba de13 9739 57bf 8fb9 f0bd 89b9
000001f0: e678 dab9 5ce6 e637 7282 30b9 75e2 bfb8
00000200: fa8f 19ba 69f6 cb38 67a1 96b9 9336 0b38
00000210: ad16 6cb9 1ee5 2e39 fe98 15b9 1e72 af39
00000220: 54e7 b2b8 18fd 0535 abfb f6b7 3b58 b2b7
00000230: 520c df39 bfa1 35b9 ad9b cf39 173e bd39
00000240: d28b 87b9 7552 b8b9 dce6 b2b9 1ac3 9437
00000250: aab3 93b8 08e3 0db8 737d 98b9 5adf 25ba
00000260: 0d03 ccb8 38e9 a2b9 6e6f 7738 4a82 1c39
00000270: abcf 10ba 6064 9e38 78dd 19ba ca5f 25b9
00000280: f420 fa38 6df2 e4b8 e499 043a b5b0 3db9
00000290: 0f3a bab9 e1d1 1b39 dd80 4e39 3384 9739
000002a0: 17d1 0139 b301 513a 574c d2b9 3007 c8b9
000002b0: bb3a 9f39 d591 b5b9 860d 44b8 45e7 a7b9
000002c0: 3ec8 04b9 4f42 feb9 63ed 31b9 022a dab7
000002d0: 6449 0e3a 2076 82b8 36f8 d5b8 7736 86b9
000002e0: e027 0db9 26ce 9239 9ee9 5a39 6a07 35b9
000002f0: 8810 d1b9 f08f 3439 3983 e138 d80f 25ba
00000300: 28e2 9e39 2335 9bb9 5d65 73b8 1d10 b2b9
00000310: f25c a6b9 eb69 63b9 0798 d338 6beb 2138
00000320: c236 5eb9 8c0b 2d39 2f21 9239 638c 1d39
00000330: b201 b339 3b84 793a 1516 80b9 9a89 2f3a
00000340: 725f e039 9950 8b39 cdab b639 6ae3 5739
00000350: 5bb6 3339 4f57 9cb9 e470 40ba b56b dd39
00000360: c42f 0a3a b756 1938 667b 1f39 80bf 8db9
00000370: 8818 113a af62 a5b7 36e1 3239 cc76 56ba
00000380: d331 53b9 e322 32ba dac8 d3b8 d386 1b3a
00000390: c9da 5bb9 bb85 a039 663e a4b9 2960 d639
000003a0: 8130 3b37 2b8c 0cb9 457f 4138 4826 b839
000003b0: eb6b 45ba b29d 0139 1d08 2438 55c6 82b9
000003c0: 5084 d0b9 ca60 a1b9 4c49 5eb9 4cb1 7039
000003d0: 1ce1 9839 92fb 8db9 ccd3 f1b8 c33e 4b39
000003e0: de8f 443a 2ac4 0639 dc11 543a 3b64 cb39
000003f0: e5f3 a139 ecff 1bb9 bda7 5a37 8eb9 5838
