checkpoints-private-cot/checkpoint-10/value_head.pt (torch, 10109 bytes, 1 tensors)

weight f4 [1, 2048]
00000000: 12f6 30b9 d66d c039 0ed6 b938 2813 47ba
00000010: d94b b7b9 5c91 bab9 439d dab8 6e6c 2f3a
00000020: e336 8cb9 4575 a0b9 e64b cfb9 027d ad39
00000030: f73b d4b9 d5d8 5c38 9b28 a2b9 4cb4 dbb6
00000040: fd12 9739 7b62 2537 53f2 5237 333c 8938
00000050: f156 013a 3bf7 cd39 009e 233a afaa 0738
00000060: 8218 2f39 3152 7ab9 a6cc c1b9 d19b c539
00000070: 3bd7 7db8 da28 a839 d466 9039 85b2 de39
00000080: 9d9e 91b9 c12b 1439 2fd7 cdb8 a4c2 83b9
00000090: 7037 1e3a 29e5 60ba d373 aeb9 deae 5bb9
000000a0: dac7 5239 feaf f839 a73f 6d39 277b 9739
000000b0: 3a41 1c39 eff5 0039 f0a8 80b7 efe1 9c39
000000c0: 344f 2b39 a505 f2b9 8500 adb8 80a2 c2b9
000000d0: 8fcd 8f39 4894 1c39 0391 bd37 e8b9 02b9
000000e0: e36c b3b8 2226 01b9 dc6f 0639 e6e2 92b9
000000f0: 3422 8c39 d869 e6b8 65a3 86b9 e210 0039
00000100: c5ba d439 8986 cfb9 ccde abb9 2fa0 bcb8
00000110: f720 8f38 9bdc b539 35a5 fdb8 f913 d039
00000120: 5f79 a1b9 aad3 7bb8 c181 14b8 d5c1 2d39
00000130: fed3 44b9 3d3d 26ba 2eda fb38 32fe 9c39
00000140: b390 adb9 d999 39b8 e9a8 3cb7 1d7b 3939
00000150: da49 3db9 dcae 05b9 2c6f 5ab9 2222 45b9
00000160: 712f 04ba 4d99 60b9 9c18 48ba 3f10 1c39
00000170: 3adf 4739 480d 4c39 8c0b 77b9 1152 c239
00000180: 02d4 b7b9 dc3a e7b9 c5c0 133a d22d bf38
00000190: c608 8b39 b082 7db9 2c44 e6b9 d01c 6638
000001a0: f918 bdb9 da28 e238 2e4e f8b9 5a05 aa39
000001b0: e395 31b9 3fd9 2a37 8ee5 03b9 0ddd 4a39
000001c0: 3cef eab9 be7a 04b9 a44b 8939 7021 39b9
000001d0: 5216 21b9 5930 5bb9 79ef 33ba 8e98 38b8
000001e0: a512 16ba bf13 9b39 fa16 95b9 d5f2 8db9
000001f0: 89cd d8b9 2856 2038 8df4 37b9 30b3 cab8
00000200: 6c70 1cba 4f85 bb38 9778 95b9 d6ff d737
00000210: dd9a 70b9 379a 3639 56f7 20b9 b52a b339
00000220: 238a c9b8 80f5 b436 7428 14b8 c020 02b8
00000230: 5c9e e439 64da 3ab9 d0d4 d039 0f2c be39
00000240: 8a06 8cb9 39d2 bbb9 0252 b7b9 2149 2137
00000250: efce a6b8 4df8 36b8 88c3 9ab9 7431 28ba
00000260: d48d b7b8 ee05 a4b9 ffa1 8f38 f52a 1439
00000270: 56de 0fba 364c 8f38 2e72 1cba c3a4 2ab9
00000280: cf77 f538 0d70 f5b8 a8d7 053a 3998 45b9
00000290: 627b beb9 956e 2639 e497 5839 bdb4 9a39
000002a0: 812a 0839 cae5 513a 6f0c d6b9 1ae7 c9b9
000002b0: b4a4 a539 6c57 b6b9 3176 29b8 b625 aab9
000002c0: 8058 0ab9 e26e 01ba a3f0 3bb9 d9d7 79b7
000002d0: 5f26 103a 09ab 55b8 f4b4 dfb8 7da4 8ab9
000002e0: ca33 11b9 fbf0 9739 0c48 5b39 e264 33b9
000002f0: af1c d1b9 cf67 3739 f512 de38 827c 27ba
00000300: a177 a039 e4ac a0b9 c15e 87b8 0bf1 b4b9
00000310: 497a acb9 ee96 64b9 3aff c538 a201 0138
00000320: 6f48 63b9 ccf2 2b39 b2d3 9639 8334 2839
00000330: c65f b539 00e7 7b3a 4b9a 84b9 e018 323a
00000340: 5e18 e339 1faa 8e39 e745 b639 cb77 6039
00000350: af51 3d39 9c2f 9db9 c35a 42ba d04a da39
00000360: b234 0b3a 38b9 1f38 e1c0 2239 858e 88b9
00000370: 9695 113a 8240 39b7 25fd 2a39 2b50 59ba
00000380: 4c06 59b9 29fc 33ba ac6d c1b8 856b 1e3a
00000390: 4d9b 64b9 8897 9f39 c6f5 a6b9 20d2 db39
000003a0: 2d75 5237 893a 18b9 bb15 1d38 9ccc bc39
000003b0: a1a3 47ba 30c9 0739 1ad7 4238 7ff2 86b9
000003c0: b4e8 cfb9 2870 a1b9 318a 65b9 b984 6c39
000003d0: f353 9939 5d9a 91b9 affe e1b8 fab0 5439
000003e0: 9e66 463a 45a1 0339 0b43 563a 842f d039
000003f0: a91b a739 7817 18b9 2adc fb36 7896 5f38
-0.00016876336 0.00036702928 8.861358e-05 -0.0007594102 -0.0003496099 -0.00035584986 -0.00010424342 0.00066918775
-0.00026743775 -0.0003060495 -0.00039538665 0.0003309027 -0.00040480468 5.2654028e-05 -0.000309293 -6.547698e-06
0.00028815112 9.857696e-06 1.2573396e-05 6.543882e-05 0.0004933915 0.00039284848 0.00062415004 3.234547e-05
0.0001669843 -0.00023872477 -0.00036964304 0.0003769086 -6.052035e-05 0.00032073894 0.00027542433 0.00042476147
-0.0002777473 0.0001413068 -9.815243e-05 -0.00025131286 0.00060354825 -0.00085790694 -0.00033274162 -0.0002095061
0.00020101611 0.0004743337 0.00022625794 0.0002889272 0.00014901618 0.00012298649 -1.5337457e-05 0.00029922972
0.00016337336 -0.00046162042 -8.2493796e-05 -0.00037123635 0.00027428239 0.00014932558 2.2598082e-05 -0.00012467022
-8.555667e-05 -0.00012316604 0.00012820907 -0.00028016343 0.00026728364 -0.000109869696 -0.0002568021 0.0001221332
0.00040574945 -0.00039582353 -0.00032781658 -8.994375e-05 6.8249115e-05 0.00034687374 -0.00012094752 0.00039687732
-0.00030798741 -6.004019e-05 -3.5406792e-05 0.00016570774 -0.0001877099 -0.00063415227 0.00012009252 0.0002994403
-0.0003310494 -4.425072e-05 -1.1245001e-05 0.00017688838 -0.00018051956 -0.00012749009 -0.00020831515 -0.000188001
-0.000504247 -0.00021419414 -0.00076330616 0.00014883371 0.00019061277 0.00019459904 -0.00023560057 0.00037063708
-0.00035062438 -0.00044103607 0.000563633 9.1161244e-05 0.00026518683 -0.00024176645 -0.0004391981 5.4863107e-05
-0.00036067495 0.00010784129 -0.00047360495 0.00032428914 -0.00016935873 1.0183371e-05 -0.0001257865 0.00019346569
-0.00044810202 -0.00012634226 0.00026187033 -0.00017655431 -0.00015362471 -0.00020903478 -0.00068639923 -4.4011096e-05
-0.0005724824 0.00029578616 -0.00028436614 -0.0002707454 -0.00041351866 3.8227212e-05 -0.00017543342 -9.665487e-05
-0.000596768 8.9416855e-05 -0.0002850934 2.574913e-05 -0.00022945875 0.00017414322 -0.00015350929 0.0003417336
-9.610157e-05 5.392998e-06 -3.5323625e-05 -3.1024916e-05 0.00043605536 -0.00017819699 0.0003983141 0.0003627245
-0.00026707753 -0.00035824048 -0.0003496558 9.6133745e-06 -7.954041e-05 -4.362343e-05 -0.0002951885 -0.00064160605
-8.7525375e-05 -0.00031284936 6.8489455e-05 0.00014130383 -0.0005488148 6.832967e-05 -0.0005967942 -0.00016273842
0.000117048265 -0.000117033815 0.00051056826 -0.00018844091 -0.0003633155 0.00015872189 0.00020655949 0.0002950783
0.00012985805 0.00080069585 -0.00040826524 -0.00038509892 0.00031593966 -0.0003477888 -4.0402814e-05 -0.00032453024
-0.00013193674 -0.00049374823 -0.00017923354 -1.48918125e-05 0.0005498882 -5.0942446e-05 -0.00010667174 -0.00026443964
-0.0001384757 0.0002898051 0.00020912307 -0.00017108352 -0.00039884957 0.00017490912 0.00010589316 -0.00063890975
0.0003060671 -0.00030646392 -6.454951e-05 -0.00034511866 -0.00032897506 -0.000218 9.441232e-05 3.0757517e-05
-0.0002167539 0.0001639828 0.00028767955 0.0001604129 0.00034594367 0.0009609312 -0.0002529196 0.0006793868
0.0004331497 0.000272111 0.00034765826 0.00021406931 0.00018054874 -0.00029980845 -0.0007414037 0.0004163594
0.00053102814 3.8081052e-05 0.00015521377 -0.00026046127 0.0005553601 -1.1041879e-05 0.00016306767 -0.0008289839
-0.00020697078 -0.0006865883 -9.223385e-05 0.00060432433 -0.00021801628 0.00030439743 -0.00031845103 0.0004192749
1.25442575e-05 -0.00014517656 3.7451955e-05 0.000360106 -0.000761563 0.00012949551 4.6453533e-05 -0.00025739145
-0.00039655494 -0.00030791876 -0.00021890622 0.00022556157 0.0002924498 -0.00027771565 -0.000107762746 0.00020283824
0.0007568392 0.00012553211 0.00081734423 0.00039708253 0.0003187333 -0.00014504592 7.5060134e-06 5.3307478e-05
