checkpoints-public-cot-run1/checkpoint-5/value_head.pt (torch, 10109 bytes, 1 tensors)

weight f4 [1, 2048]
000000 d4 39 42 b9 86 98 93 39 ef d0 8f b9 5f 38 c8 b9
       -0.00018522824 0.00028151664 -0.00027430753 -0.00038188972
000010 9b e8 c7 b7 04 5a 00 39 1c c6 ed b9 28 e6 c0 39
       -2.3830964e-05 0.00012240565 -0.00045351766 0.00036792574
000020 5b 4e 31 39 49 d3 39 b9 8f 78 eb b9 ba 2b a2 39
       0.00016909225 -0.00017721685 -0.00044912516 0.00030931627
000030 6f 99 fe b9 f7 28 c7 37 68 1d 29 b9 f2 79 d2 b8
       -0.00048560972 2.3741724e-05 -0.0001612805 -0.000100362944
000040 d5 9a f2 b8 c7 21 f3 39 28 6a a2 39 a3 bf 9f 37
       -0.00011568299 0.00046373738 0.0003097814 1.9043515e-05
000050 6c 59 fa b9 69 fa 81 39 3a 3a b9 b9 6a 43 20 3a
       -0.0004775034 0.00024791367 -0.00035329332 0.0006113561
000060 3c c2 3d 38 b3 a4 a3 b6 83 ca 86 b9 b4 de a6 38
       4.5242006e-05 -4.876952e-06 -0.00025709355 7.9569785e-05
000070 19 44 3d b9 ee ee 92 b9 fe c7 0f 3a 37 03 1d 3a
       -0.00018049813 -0.00028025307 0.0005484818 0.0005989554
000080 03 2c 2b 39 1e 19 37 3a 6a 9a 0a 39 a9 a6 84 b9
       0.00016324226 0.0006984639 0.0001321823 -0.00025301173
000090 88 5f b7 b9 6a 50 04 ba b2 54 2f b9 30 7a c1 b9
       -0.00034975656 -0.0005047383 -0.00016720852 -0.00036902865
0000a0 23 cc 46 3a 36 0c 97 b8 3d dd 1c 39 5b e4 fb 39
       0.00075835193 -7.2025156e-05 0.00014959737 0.0004804459
0000b0 78 e6 6d 39 c1 f3 f8 39 c7 6c 88 b9 37 b5 c5 38
       0.00022687938 0.00047483857 -0.00026020987 9.427446e-05
0000c0 ef e3 0a 3a 6b 0c 47 38 b6 aa 41 ba 99 29 44 b9
       0.0005298247 4.7456862e-05 -0.00073878036 -0.00018707513
0000d0 41 5e 79 37 a0 73 7d 39 39 50 fe b9 9b 6e 58 b8
       1.4863502e-05 0.00024171034 -0.00048506426 -5.1601422e-05
0000e0 d9 ad f8 b7 ee c1 3e b9 6a 21 ec b9 ec ef ae b9
       -2.9644858e-05 -0.00018192056 -0.00045038323 -0.00033366622
0000f0 89 60 9a 38 45 40 84 b6 f9 fb f3 b9 be 89 c0 b9
       7.361273e-05 -3.9413885e-06 -0.00046536306 -0.0003672372
000100 bb 45 ec 39 ad 99 6f 39 27 68 b5 b9 9d a9 b4 39
       0.0004506538 0.00022850065 -0.0003460061 0.00034458647
000110 64 75 41 b8 73 4a 95 39 e4 72 b7 b9 cf b5 d2 38
       -4.6124114e-05 0.00028474964 -0.0003499008 0.00010047445
000120 11 42 23 b8 f8 f0 03 ba 92 32 8f ba 9c ee eb 39
       -3.8923758e-05 -0.00050331606 -0.0010925105 0.0004500047
000130 42 7f b1 b9 92 cd 45 b8 5d 72 9f b8 86 9e 9a b8
       -0.00033854885 -4.7159912e-05 -7.603013e-05 -7.3728195e-05
000140 12 f2 0f ba 00 93 78 b7 3e 51 83 39 e2 ae b0 b9
       -0.00054910884 -1.4816178e-05 0.00025046797 -0.00033699634
000150 74 49 c4 b9 5f 12 45 b8 36 e9 df 38 62 59 9e b8
       -0.0003743876 -4.698557e-05 0.000106769076 -7.550676e-05
000160 48 11 f8 b9 73 2e 07 39 72 96 39 b9 e0 46 f9 39
       -0.00047315122 0.00012891907 -0.0001769902 0.00047545787
000170 b0 4f d1 39 02 bb b0 b7 de 45 82 39 19 7f b7 39
       0.00039922958 -2.1067917e-05 0.00024847587 0.00034999175
000180 cd 09 60 b9 76 d7 67 b9 a8 0a 01 b9 95 18 cb 39
       -0.00021365956 -0.00022110142 -0.00012306368 0.00038737492
000190 d4 19 8f 38 3f e0 0f ba c4 50 33 ba ca 34 bc b8
       6.823582e-05 -0.00054884324 -0.0006840343 -8.974371e-05
0001a0 8c 39 54 b9 15 b2 87 39 40 70 92 b9 59 b3 9c b9
       -0.00020239333 0.00025881888 -0.00027930923 -0.00029888263
0001b0 59 88 78 39 2d eb 36 39 65 65 00 3a 0e 86 6f 39
       0.00023701917 0.00017444482 0.00048979215 0.00022842755
0001c0 bf 2a 70 34 82 e9 db 39 5b ee 33 38 6c 87 4c 39
       2.2367293e-07 0.00041944912 4.289891e-05 0.00019505405
0001d0 84 4d e9 b8 a6 e9 d8 b8 35 4d a5 39 a9 75 79 b9
       -0.00011124744 -0.00010343203 0.00031528776 -0.00023790322
0001e0 d4 da 1d ba 2a d4 1d 39 57 7c d4 b9 b3 75 ca b8
       -0.00060216826 0.00015051724 -0.0004052843 -9.654034e-05
0001f0 db 30 96 39 7d 58 ec 38 d9 01 a8 b9 f7 9b 1a b8
       0.0002864663 0.00011269839 -0.00032044834 -3.6861715e-05
000200 f4 2f 27 ba 10 f7 b1 38 08 28 8f 39 e2 10 8c 38
       -0.000637769 8.486037e-05 0.0002730491 6.678865e-05
000210 7b 4e 02 ba c0 77 27 3a ca af ff b9 92 48 a0 39
       -0.0004970801 0.00063883886 -0.00048768363 0.00030571647
000220 d0 a0 e5 b9 e4 8a ff 39 3e 72 eb 36 f3 49 43 b9
       -0.00043798098 0.00048740872 7.0168453e-06 -0.00018624197
000230 46 71 8b b8 da ed 19 ba 55 be 96 39 94 b0 6a 38
       -6.649135e-05 -0.00058719295 0.00028752038 5.59544e-05
000240 02 23 19 b9 ca 5d 9c b8 e1 d1 b8 b9 c1 2c 17 ba
       -0.00014604258 -7.456129e-05 -0.00035251587 -0.0005766862
000250 c4 67 b8 b9 9f ac db b8 e9 ad ad b9 bb 31 bd 37
       -0.00035172526 -0.00010474887 -0.00033126705 2.2553713e-05
000260 f5 30 d4 39 6e bc e5 b8 c2 f8 6f 39 40 66 10 b9
       0.00040472267 -0.00010954669 0.00022885486 -0.00013771001
000270 d3 1f ef b7 4f 23 1b 39 30 52 61 b8 19 52 99 38
       -2.850584e-05 0.00014795105 -5.3720723e-05 7.3109004e-05
000280 5e 0b 9b b9 1c 45 32 b9 e4 b0 db 37 09 f7 ff b9
       -0.00029572373 -0.00017001148 2.6189206e-05 -0.00048821446
000290 45 8d 90 b9 49 c6 20 39 8f 6c a0 39 95 a0 1d 3a
       -0.00027571074 0.00015332656 0.0003059846 0.00060130033
0002a0 2f f5 8d 38 1b bd 33 b9 b6 fa d4 36 19 b6 d6 39
       6.769073e-05 -0.00017141218 6.347279e-06 0.00040952934
0002b0 d2 f6 cb 37 3b f3 c5 b9 29 ef 8f b8 a6 3e 99 b9
       2.431442e-05 -0.0003775599 -6.8633184e-05 -0.0002922911
0002c0 f5 1e 33 ba 2d b0 14 b9 46 bf ad b9 b7 9c c8 39
       -0.0006832921 -0.0001418001 -0.0003313964 0.00038263734
0002d0 f6 0c a8 b9 5b 68 9c b7 bd 2c 39 38 b2 87 ad b9
       -0.00032053114 -1.8645243e-05 4.4149103e-05 -0.00033098232
0002e0 5e c1 55 b9 bd 2a 93 b9 f6 6c 82 b8 ab ca 1a 38
       -0.00020385298 -0.00028069867 -6.2191786e-05 3.690521e-05
0002f0 66 d4 db 39 c6 23 56 39 fa d2 11 b9 ed 91 9a b9
       0.00041929184 0.00020421957 -0.00013906872 -0.00029481892
000300 0e fb ac 39 be 2f 61 36 70 63 63 b9 d9 08 0c ba
       0.00032993447 3.3555402e-06 -0.0002168545 -0.00053418946
000310 06 46 c4 b8 17 a1 ae b7 6c c0 0d b9 1f 1f 20 ba
       -9.359051e-05 -2.081743e-05 -0.0001351849 -0.0006108153
000320 09 a4 2c 38 bc 5f 44 b9 96 90 cd b8 a4 79 fb 39
       4.1160765e-05 -0.0001872768 -9.802093e-05 0.0004796508
000330 52 d4 1b 38 f5 4c e5 39 5d c5 49 ba 2b 76 08 39
       3.715262e-05 0.0004373562 -0.0007696951 0.00013013992
000340 d8 0b 93 39 10 8b 34 b9 bc e6 c3 38 35 a3 03 3a
       0.0002804685 -0.00017217943 9.341302e-05 0.0005021573
000350 e2 1d c4 39 cb 0e 87 b9 ea c4 21 b9 33 04 03 3a
       0.00037406298 -0.00025760228 -0.00015427513 0.0004997879
000360 1b f5 a4 39 52 20 81 39 b1 8f f0 39 01 41 76 39
       0.00031463135 0.00024628878 0.00045883426 0.00023484604
000370 52 ab cb 39 2e ac 23 3a 05 11 f7 b9 bb 24 4d 39
       0.0003884682 0.00062436133 -0.00047124192 0.00019564007
000380 1d 61 95 b9 94 ae e7 b9 c7 a7 a8 39 b8 1c 24 39
       -0.0002849185 -0.00044189824 0.0003216846 0.00015650957
000390 81 c5 92 b9 92 10 e6 38 2d f7 91 38 2f b0 26 39
       -0.00027994442 0.00010970341 6.960179e-05 0.00015896627
0003a0 40 43 a0 b9 42 5c b9 37 d9 77 8f b6 89 66 b2 39
       -0.00030567683 2.209668e-05 -4.275684e-06 0.000340272
0003b0 d2 4b c1 b9 a7 77 ac 39 be 6e 8f 38 56 33 92 b7
       -0.0003686832 0.00032895544 6.839399e-05 -1.7428461e-05
0003c0 05 46 d5 39 20 0a 88 39 67 de 61 39 f2 fc 0c 39
       0.00040678694 0.00025947485 0.00021540523 0.0001344567
0003d0 8b 68 05 b9 66 6d 8e b9 ee 00 6b b9 8d ab 99 36
       -0.00012722814 -0.0002716586 -0.00022411693 4.5797265e-06
0003e0 87 4f 2c 3a 6a 4e a3 39 f4 c0 0d 3a f5 bc f1 39
       0.000657313 0.00031148206 0.00054074754 0.00046107886
0003f0 a4 22 25 39 0e 11 81 b9 00 d3 66 b9 76 5d b2 39
       0.00015748531 -0.00024617504 -0.00022013113 0.0003402044
