checkpoints-private-cot-run1/checkpoint-10/value_head.pt (torch, 10109 bytes, 1 tensors)

weight f4 [1, 2048]
00000000: d965 94b8 445c e539 0e4b be38 047a 65ba
00000010: 1577 abb9 6536 abb9 5919 8638 ea65 203a
00000020: a1e3 07ba 36e5 d6b9 f281 cbb9 7d61 a439
00000030: 087b 5aba 7460 a338 bc52 bbb9 a0de 9db8
00000040: 0272 c939 0b4b 27b9 b2b5 f038 33cf 8739
00000050: 663f 8839 c8fb 003a a61a 0a3a f8a2 23b9
00000060: 2eb0 8d39 c50f 0837 ce7c 5bb9 e940 003a
00000070: 8000 16b9 2c35 783a d83d b039 8055 f539
00000080: a607 84b9 00fc dc38 91e2 8fb8 3bc7 aab8
00000090: 8e0a 103a d82b 95ba 99d4 afb9 dc54 82b9
000000a0: 0304 9a39 aea0 f139 3301 8cb7 5d8e e039
000000b0: 7a33 3739 65c7 9a39 f300 3d39 e448 2f3a
000000c0: 9eb7 e739 d6a8 dfb9 ae2d ddb8 d0c3 50ba
000000d0: 4e14 ae39 5a8f 43b6 dee7 df38 9ffc 2eb9
000000e0: 8d23 3738 402e b2b8 4229 8739 140f 85b9
000000f0: e52b 9a39 ca1a 62b9 17b6 79b9 3274 8bb9
00000100: 5c86 393a 26c9 98b9 5f01 11ba 9b45 05b9
00000110: fd00 ca39 a602 d439 cc71 85b9 2542 c039
00000120: bbd9 d3b9 ac28 3938 3e0f e138 c2ac 3c39
00000130: 9d87 8ab9 3363 0bba e7e3 fcb8 725f 8838
00000140: 5e94 f1b8 7d80 32b9 25d5 8337 b2a7 6e39
00000150: 4827 a3b8 fe42 3eb9 23fa 9ab9 001f 07b9
00000160: 8ca2 5dba 949b 10b9 b5e6 69ba bd30 3439
00000170: 5936 a239 0a4e f039 3a3b adb9 f6d0 c039
00000180: d95c a2b9 6618 0bba 67fa c639 cd0c 8639
00000190: f5f6 df39 4126 e3b9 6f40 06ba bab8 b438
000001a0: 316d a7b9 c34e 1139 1543 29ba 9afc d339
000001b0: 461e c8b9 c365 0e39 c80d 3fb8 e6b2 5d39
000001c0: 2ed8 08ba 04f6 d037 8e42 d239 ed81 51b8
000001d0: 703b 9eb8 8650 a2b9 17ba 0aba b03f 0e39
000001e0: 8a7b 0aba dfba f039 82c5 73b9 39fd d0b9
000001f0: 8b2b a7b9 4bfb 02b8 4a57 24b9 d337 2bb9
00000200: 7a3b 29ba b2ff d739 551a b3b9 6295 0839
00000210: 4554 6eb9 18ac 3b39 9a3b 95b9 71a6 8d39
00000220: b11e 9e39 3ba0 91b8 f789 bbb8 6624 4538
00000230: d120 473a 310e 1cb9 e02b 0b3a fae9 333a
00000240: 2bcb 59b9 ed89 13b9 9d42 a7b9 3b13 4f39
00000250: 2c63 89b7 16e7 b338 7fbe b4b9 633c 32ba
00000260: c9d7 26b7 2402 aab9 e3f7 87b8 4c73 c135
00000270: 2d5e 2fba d89e 5c39 b1a2 23ba f0f0 a7b9
00000280: 0226 a938 7922 5cb8 88fc f439 8268 0db9
00000290: 1479 95b9 b780 e538 bca3 7cb7 b25e cc39
000002a0: 6f3f 43b9 658d 483a b3a6 1aba 2ed0 14b9
000002b0: 185a 3638 8aea 76b9 c4dd 14b9 0af8 84b8
000002c0: cdd1 5db9 1ab3 98b8 8f84 46b9 6db6 8eb8
000002d0: 66ff 373a 3b8a cab9 3d38 d736 0f06 cfb9
000002e0: bf30 7cb9 b498 a939 516e 1639 24d9 2cb9
000002f0: 657d c1b9 c0f1 eab8 a8f9 e938 c582 2eba
00000300: 015b 0d3a d6d2 14ba 1899 b3b8 fe97 afb9
00000310: b10a 1bba 18bf a0b9 dd02 b338 532e dc38
00000320: f212 e4b8 8811 5039 bed9 e439 dc25 3939
00000330: ca06 113a 6886 823a acac dab9 a1e1 253a
00000340: 57ff 093a 4445 b639 022f 9539 8868 0c3a
00000350: ead9 5f39 fb46 8db9 319b f8b9 c610 103a
00000360: e207 183a 2f06 f137 8f68 d039 2306 a2b9
00000370: 989a 333a 02c2 7537 0f99 8b38 0799 55ba
00000380: 6c00 8635 d133 12ba 5087 4eb8 b2c8 c339
00000390: daf0 73b9 6942 f839 4386 b6b9 816b 8439
000003a0: 93ec 82b9 adff be38 0005 0038 0798 9f39
000003b0: 722d 85ba 5d2e 3239 17f2 c1b8 438a 4fb9
000003c0: 4021 4fba 98be 0aba 63b9 c2b9 120d db39
000003d0: bd1b 053a 01ea abb9 f826 c8b9 c4cc 9b39
000003e0: 3d2b 7e3a b434 c539 facc 623a 5b9f d839
000003f0: ee87 ae39 5a06 45b9 b2e6 04b9 1c43 20b8
-7.0761605e-05 0.00043747027 9.073886e-05 -0.00087538385 -0.00032704385 -0.0003265619 6.394339e-05 0.0006118702
-0.00051837607 -0.00040988036 -0.00038815994 0.00031353152 -0.0008334373 7.7904115e-05 -0.0003572906 -7.5278105e-05
0.0003842265 -0.00015954317 0.00011477935 0.00025903582 0.00025987177 0.0004920331 0.0005268253 -0.00015605602
0.0002702488 8.109903e-06 -0.00020931961 0.0004892485 -0.00014305301 0.00094683724 0.00033615413 0.00046793744
-0.000251827 0.00010537356 -6.860973e-05 -8.143341e-05 0.0005494737 -0.0011380864 -0.00033537 -0.00024858757
0.00029376158 0.00046086818 -1.6689859e-05 0.00042830678 0.00017471417 0.0002952173 0.00018024798 0.0006686582
0.0004419656 -0.00042659667 -0.0001054661 -0.00079637486 0.00033202994 -2.9140706e-06 0.00010676657 -0.00016688042
4.366371e-05 -8.496316e-05 0.00025779946 -0.0002537897 0.00029405873 -0.00021563019 -0.00023814324 -0.00026598718
0.0007077211 -0.00029141566 -0.00055315153 -0.00012709798 0.0003852918 0.00040437764 -0.00025452522 0.00036670375
-0.00040407278 4.4145316e-05 0.00010731675 0.00017993434 -0.0002642245 -0.0005317211 -0.000120587465 6.5027634e-05
-0.00011519411 -0.00017023268 1.571567e-05 0.0002275992 -7.7797624e-05 -0.00018144769 -0.00029559535 -0.00012886152
-0.00084547023 -0.00013790868 -0.00089226227 0.00017184294 0.0003093954 0.0004583451 -0.0003304126 0.00036776782
-0.00030968225 -0.0005306065 0.00037952067 0.0002556801 0.00042717872 -0.00043325315 -0.00051212957 8.617477e-05
-0.00031934076 0.00013857619 -0.00064568344 0.0004043326 -0.00038169528 0.00013580084 -4.5550783e-05 0.00021142847
-0.00052202016 2.4910092e-05 0.00040103908 -4.9950486e-05 -7.545098e-05 -0.00030959042 -0.0005292012 0.00013565901
-0.0005282691 0.00045915597 -0.00023247863 -0.00039861517 -0.00031885164 -3.122845e-05 -0.00015672776 -0.00016328627
-0.0006455701 0.00041198503 -0.0003416116 0.0001302562 -0.00022728842 0.0001789782 -0.000284639 0.00027017624
0.00030158975 -6.943984e-05 -8.942553e-05 4.700236e-05 0.00075961376 -0.00014882606 0.0005308967 0.00068631733
-0.00020770419 -0.00014070394 -0.00031902353 0.00019748222 -1.6377853e-05 8.578428e-05 -0.00034474206 -0.00067991595
-9.944612e-06 -0.00032426522 -6.483474e-05 1.4413176e-06 -0.00066897535 0.00021040009 -0.00062421995 -0.00032032235
8.0656275e-05 -5.2484193e-05 0.00046727457 -0.0001348574 -0.00028509705 0.00010943546 -1.5058493e-05 0.00038980466
-0.0001862028 0.0007650464 -0.0005899474 -0.00014191933 4.3476088e-05 -0.00023547761 -0.00014196994 -6.3404514e-05
-0.0002115436 -7.281285e-05 -0.00018932133 -6.805067e-05 0.00070189533 -0.00038631432 6.4140463e-06 -0.0003948663
-0.00024050752 0.00032347965 0.00014346211 -0.0001648409 -0.00036905255 -0.00011203019 0.00011156808 -0.00066570594
0.0005392284 -0.0005677169 -8.563901e-05 -0.00033491844 -0.0005914374 -0.00030659954 8.5359185e-05 0.00010499046
-0.00010875416 0.00019842957 0.0004364978 0.00017657079 0.00055323227 0.0009958269 -0.0004170885 0.0006327872
0.0005264184 0.00034765352 0.00028454518 0.00053561525 0.00021348117 -0.000269465 -0.00047417873 0.00054956635
0.00057995145 2.8732318e-05 0.00039750754 -0.0003090362 0.00068513444 1.4648309e-05 6.656546e-05 -0.0008148108
9.983901e-07 -0.0005577179 -4.9240247e-05 0.00037342828 -0.0002326401 0.00047351726 -0.00034813778 0.000252571
-0.00024971794 9.107529e-05 3.0522235e-05 0.00030440112 -0.0010160638 0.00016992675 -9.24805e-05 -0.00019792565
-0.0007901378 -0.0005292683 -0.00037140687 0.00041780673 0.00050776807 -0.00032790008 -0.00038176007 0.00029716466
0.0009695774 0.00037614035 0.00086517597 0.0004131746 0.00033289142 -0.0001878975 -0.00012674442 -3.8209473e-05
