checkpoints-public-cot/checkpoint-10/value_head.pt (torch, 10109 bytes, 1 tensors)

weight f4 [1, 2048]
0	0xb9422c7b	-0.00018517852
1	0x3995a69e	0.00028543634
2	0xb98f0e1d	-0.000272856
3	0xb9c7e08d	-0.0003812354
4	0xb7b9c500	-2.2145454e-05
5	0x38f74232	0.00011790208
6	0xb9ed6f69	-0.0004528717
7	0x39be8c1e	0.0003634402
8	0x3931934c	0.00016934908
9	0xb939a0e7	-0.00017702916
10	0xb9ecf5a6	-0.0004519645
11	0x399fd03f	0.00030482
12	0xb9fe258b	-0.00048474627
13	0x379f8752	1.901729e-05
14	0xb926c7de	-0.0001590545
15	0xb8dc98c6	-0.00010518874
16	0xb8fc360a	-0.00012026362
17	0x39f21cee	0.0004617939
18	0x39a180da	0.00030804315
19	0x37af086f	2.0865553e-05
20	0xb9f9a7ab	-0.00047617903
21	0x39816297	0.00024678253
22	0xb9ba3478	-0.00035515777
23	0x3a216fca	0.00061583205
24	0x3829fe43	4.052954e-05
25	0xb5c254d3	-1.4478813e-06
26	0xb984f7d4	-0.00025361648
27	0x38afa2fd	8.375009e-05
28	0xb93bb616	-0.00017901542
29	0xb993afe7	-0.00028169082
30	0x3a0fcab1	0.00054852205
31	0x3a1bba3b	0.0005940531
32	0x39271d78	0.00015937339
33	0x3a37cc46	0.0007011335
34	0x390fcaac	0.00013713044
35	0xb983bc43	-0.00025126533
36	0xb9b53269	-0.0003456057
37	0xba0529a9	-0.0005079755
38	0xb92d98cd	-0.00016555488
39	0xb9c34508	-0.0003724473
40	0x3a4597b6	0.00075375603
41	0xb8a13055	-7.686081e-05
42	0x391c4263	0.0001490205
43	0x39fe07c7	0.0004845245
44	0x3968f582	0.00022216703
45	0x39f671bb	0.00047005512
46	0xb987503a	-0.0002580898
47	0x38bcaeec	8.99712e-05
48	0x3a0b70a0	0.00053192116
49	0x3850b8d3	4.9763195e-05
50	0xba40704b	-0.00073409517
51	0xb949347f	-0.0001918841
52	0x37525c73	1.25385e-05
53	0x397f2481	0.00024332294
54	0xb9ffcc7e	-0.0004878975
55	0xb84cd475	-4.8835256e-05
56	0xb80fa078	-3.4243305e-05
57	0xb9432e81	-0.00018613973
58	0xb9eb0788	-0.00044828304
59	0xb9afefeb	-0.00033557354
60	0x38a425e4	7.827187e-05
61	0xb6b72438	-5.4580414e-06
62	0xb9f1abcc	-0.000460951
63	0xb9c2ef40	-0.0003718082
64	0x39eda819	0.00045329405
65	0x397405f2	0.00023271868
66	0xb9b5fce8	-0.0003471144
67	0x39b2537b	0.00034013003
68	0xb838a25e	-4.4020235e-05
69	0x3992d0fa	0.0002800299
70	0xb9b4f016	-0.00034511153
71	0x38d90a4e	0.00010349286
72	0xb80fc172	-3.4274017e-05
73	0xba03583d	-0.0005010402
74	0xba8eef0d	-0.0010904983
75	0x39eaafaa	0.00044762838
76	0xb9b04496	-0.00033620436
77	0xb831ef51	-4.242297e-05
78	0xb895e902	-7.148275e-05
79	0xb8a43106	-7.829261e-05
80	0xba104fe8	-0.0005505071
81	0xb744541b	-1.1702093e-05
82	0x3985c663	0.00025515546
83	0xb9ae544a	-0.00033250666
84	0xb9c6964d	-0.00037877486
85	0xb8327598	-4.2548025e-05
86	0x38d939f1	0.00010358159
87	0xb8a7f22d	-8.008289e-05
88	0xb9f9b0cc	-0.00047624705
89	0x39044722	0.00012615
90	0xb9376ae1	-0.00017492055
91	0x39fa9867	0.00047797264
92	0x39d31960	0.00040263962
93	0xb7a305a7	-1.9433746e-05
94	0x397fa91e	0.00024381696
95	0x39b6591a	0.0003478013
96	0xb96243e1	-0.00021578326
97	0xb966b81c	-0.00022003095
98	0xb905d6f9	-0.00012763952
99	0x39c8b972	0.0003828514
100	0x3885fb9c	6.3888e-05
101	0xba10930f	-0.00055150775
102	0xba323323	-0.0006797781
103	0xb8b2e086	-8.529522e-05
104	0xb94f9354	-0.00019795942
105	0x39854388	0.00025418052
106	0xb994d202	-0.00028385228
107	0xb99b8622	-0.0002966384
108	0x397af4ad	0.00023933007
109	0x3935ab9d	0.00017325436
110	0x39ffb296	0.00048770447
111	0x396d2563	0.00022616009
112	0xb58f81bb	-1.0692087e-06
113	0x39db2747	0.000418002
114	0x382ab9e7	4.0704293e-05
115	0x3950ba4b	0.00019905825
116	0xb8df327c	-0.00010642872
117	0xb8d4f964	-0.000101554004
118	0x39a5b02a	0.00031602505
119	0xb97454d3	-0.00023301253
120	0xba1d3eec	-0.0005998451
121	0x3918e2e3	0.00014580371
122	0xb9d2e18d	-0.0004022237
123	0xb8c01d23	-9.1607006e-05
124	0x39988461	0.0002909033
125	0x38e6c661	0.000110042056
126	0xb9aa6c3b	-0.00032505565
127	0xb8207508	-3.8255967e-05
128	0xba26b49c	-0.00063593104
129	0x38bb97ed	8.945153e-05
130	0x398f6496	0.00027350028
131	0x3895eb19	7.148664e-05
132	0xba01e248	-0.0004954678
133	0x3a28267d	0.00064144266
134	0xb9ff2d9e	-0.00048671378
135	0x399f7cb1	0.00030419746
136	0xb9e313a9	-0.00043311462
137	0x3a001377	0.0004885713
138	0x36a05c85	4.7791423e-06
139	0xb941cf16	-0.0001848306
140	0xb8943e40	-7.068785e-05
141	0xba199455	-0.000585859
142	0x3998de05	0.00029157117
143	0x38698e48	5.568404e-05
144	0xb917418a	-0.00014424897
145	0xb8936b41	-7.029484e-05
146	0xb9b65595	-0.0003477751
147	0xba15e899	-0.00057185587
148	0xb9b74d78	-0.000349622
149	0xb8df5180	-0.00010648649
150	0xb9ab33a6	-0.00032654143
151	0x37e52319	2.7315271e-05
152	0x39d1c680	0.0004001148
153	0xb8f0003a	-0.00011444134
154	0x396b133d	0.00022418513
155	0xb90ec7de	-0.00013616632
156	0xb8037c25	-3.1348452e-05
157	0x391ff1c4	0.00015253486
158	0xb859d4b2	-5.193492e-05
159	0x38a30cb9	7.7748155e-05
160	0xb99ad4fb	-0.00029531852
161	0xb934962f	-0.00017222085
162	0x37cdde18	2.4541325e-05
163	0xba00963b	-0.00049051986
164	0xb992e7b6	-0.00028019928
165	0x391be188	0.00014865969
166	0x39a0ab4c	0.00030645204
167	0x3a1de1ab	0.0006022702
168	0x388bc3cd	6.664507e-05
169	0xb935b6ff	-0.00017329676
170	0x373c2d97	1.1216288e-05
171	0x39d44d8a	0.00040493562
172	0x37ce3ed5	2.4586372e-05
173	0xb9c757e8	-0.00038021733
174	0xb88e213e	-6.7772795e-05
175	0xb9981bf4	-0.00029012526
176	0xba323ff6	-0.0006799692
177	0xb9132a81	-0.00014034846
178	0xb9abc357	-0.000327612
179	0x39c7aebb	0.00038086422
180	0xb9a5cfe8	-0.00031626155
181	0xb7b2bf9f	-2.1308484e-05
182	0x38308622	4.208659e-05
183	0xb9afc848	-0.00033527822
184	0xb950c99f	-0.00019911535
185	0xb9959d8b	-0.00028536873
186	0xb889b39a	-6.5661225e-05
187	0x38074696	3.2252246e-05
188	0x39ddc7b8	0.00042301207
189	0x3959f1aa	0.0002078476
190	0xb916fd41	-0.00014399459
191	0xb999aba3	-0.00029310313
192	0x39aa96bd	0.00032537236
193	0x34f897b4	4.6303978e-07
194	0xb95e5053	-0.00021201493
195	0xba0b774c	-0.0005320206
196	0xb8cbcb92	-9.717712e-05
197	0xb797a364	-1.8076687e-05
198	0xb90b4f31	-0.00013285574
199	0xba1fa952	-0.00060905993
200	0x38184065	3.6299596e-05
201	0xb940250e	-0.00018324351
202	0xb8ce604b	-9.8407814e-05
203	0x39fb0473	0.00047877766
204	0x38247ca1	3.9216717e-05
205	0x39e2f38c	0.00043287536
206	0xba490458	-0.0007668189
207	0x39036d1a	0.00012533777
208	0x399209ea	0.00027854677
209	0xb9395c88	-0.00017677445
210	0x38b9f6bc	8.867445e-05
211	0x3a0425c7	0.00050410297
212	0x39c30481	0.00037196654
213	0xb9872a3f	-0.00025780682
214	0xb921eda1	-0.0001544268
215	0x3a02f609	0.00049957685
216	0x39a27381	0.00030985105
217	0x39807ad8	0.00024505588
218	0x39efb732	0.00045722123
219	0x39718a6f	0.00023035122
220	0x39ce3185	0.00039328277
221	0x3a22bdfa	0.0006208118
222	0xb9f494b7	-0.00046650108
223	0x394f811e	0.00019789158
224	0xb9942b97	-0.00028261237
225	0xb9e866aa	-0.0004432698
226	0x39a65359	0.00031724086
227	0x391f4a2e	0.00015191056
228	0xb9906b9f	-0.00027546004
229	0x38dce383	0.00010532795
230	0x389bce4e	7.429403e-05
231	0x3926c12b	0.00015902954
232	0xb9a09dcb	-0.00030635143
233	0x37cb8d03	2.426515e-05
234	0x351fd8ad	5.954742e-07
235	0x39b2567e	0.00034015247
236	0xb9c17dee	-0.00036905654
237	0x39ab54da	0.0003267888
238	0x3885df62	6.3835425e-05
239	0xb7604eab	-1.3369757e-05
240	0x39d64a2c	0.00040872523
241	0x3986e4fe	0.00025729084
242	0x395cf783	0.0002107304
243	0x390ef21c	0.00013632368
244	0xb902f373	-0.00012488458
245	0xb98d4cae	-0.00026950747
246	0xb96b57c5	-0.00022444043
247	0x36b03127	5.250931e-06
248	0x3a2cb462	0.00065881584
249	0x39a300a1	0.0003109025
250	0x3a0c8828	0.0005360865
251	0x39f0f974	0.00045962224
252	0x39206f47	0.00015300243
253	0xb983976f	-0.00025099094
254	0xb9653ac5	-0.00021861035
255	0x39b497d4	0.00034445396
