checkpoints-public-cot-run1/checkpoint-999/value_head.pt (torch, 10109 bytes, 1 tensors)

weight f4 [1, 2048]
000000 96 73 3f b9 24 a6 b8 39 50 00 50 38 85 05 d7 b9
       -0.00018258239 0.00035219 4.9591355e-05 -0.00041012108
000010 a0 59 b9 b5 c5 14 80 38 78 e5 75 b9 22 06 9b 39
       -1.3809658e-06 6.107384e-05 -0.00023450505 0.00029568473
000020 b9 93 06 39 dd ec 13 ba f2 57 d4 b9 21 0a ae 39
       0.00012834267 -0.00056429004 -0.00040501315 0.00033195413
000030 3e 46 f8 b9 dd 14 a3 b8 70 6a 3d 36 ee cc 93 b9
       -0.0004735458 -7.776332e-05 2.822515e-06 -0.0002819071
000040 be a2 6e b8 50 6a e6 39 64 e5 ab 39 6b b4 40 39
       -5.6895187e-05 0.00043948228 0.0003278657 0.00018377758
000050 dd 22 91 b9 c8 df 58 39 90 d0 1e ba 98 07 78 3a
       -0.0002768253 0.0002068273 -0.00060583 0.0009461581
000060 ad 77 26 39 81 ee 8d 39 fc 65 d6 b7 58 8e 84 38
       0.00015875576 0.00027071315 -2.5558278e-05 6.320764e-05
000070 08 06 8d b9 fa 96 ee b9 9e 8b 1e 3a 58 4a 2c 3a
       -0.0002689811 -0.00045507384 0.0006048026 0.00065723574
000080 7b 19 36 39 d3 3e 15 3a 70 09 4a 39 2b 0e 6c b9
       0.00017366365 0.00056932605 0.00019267737 -0.00022511992
000090 b3 b6 f8 b9 06 4a 14 ba 3f b8 6a b9 89 16 e0 b9
       -0.00047438368 -0.00056567823 -0.00022384616 -0.000427414
0000a0 48 44 3e 3a 06 e7 00 b9 64 09 ab 39 04 dd 15 3a
       0.00072580995 -0.00012293094 0.00032622658 0.0005716833
0000b0 62 5a 51 39 c0 1b 21 3a e1 03 21 b8 20 48 25 39
       0.00019965463 0.00061457977 -3.8389004e-05 0.00015762495
0000c0 3b f7 1a 3a d2 14 5d 39 da 26 40 ba 1a be 80 38
       0.0005911474 0.00021083959 -0.0007330008 6.138925e-05
0000d0 54 34 d8 b8 e3 60 cb 39 23 42 08 ba f5 2a d7 b8
       -0.000103094295 0.00038791363 -0.00051978434 -0.0001026
0000e0 49 6e 97 b9 f6 45 52 b9 dc 38 12 ba 58 4e c6 b8
       -0.00028883133 -0.00020053223 -0.0005577931 -9.4559684e-05
0000f0 02 0b 3b b8 b1 a1 ab 39 25 c7 dc b9 c0 d5 2f ba
       -4.4594526e-05 0.0003273613 -0.00042110044 -0.00067075714
000100 62 fa 39 3a bb b1 63 39 c6 60 00 ba a9 41 ba 39
       0.00070945 0.00021714617 -0.0004897233 0.00035525605
000110 1c 7a 68 b9 7e bf a8 39 6a 49 0e ba 8d 32 53 38
       -0.00022170733 0.0003218613 -0.00054278097 5.03534e-05
000120 5f 4f b2 37 50 be b0 b9 b6 fe 8d ba 35 15 a4 39
       2.1256214e-05 -0.0003371113 -0.0010833356 0.00031296318
000130 17 6b ce b9 ef 11 81 b8 a8 8d 87 b8 2c b0 91 b8
       -0.0003937117 -6.15454e-05 -6.463687e-05 -6.946953e-05
000140 3c 0c fa b9 57 c3 ee 38 12 7b b9 39 cc 58 dc b9
       -0.0004769283 0.00011385109 0.00035377644 -0.0004202783
000150 55 ec 9f b9 52 83 14 b9 0f e3 14 39 b5 b6 4d b8
       -0.00030502924 -0.000141633 0.00014198966 -4.9045968e-05
000160 76 90 0f ba 83 66 d9 b6 b7 95 95 b9 fd d1 e3 39
       -0.00054765434 -6.479038e-06 -0.0002853104 0.00043453267
000170 f3 78 cb 39 bd 4f 80 39 06 0c a8 39 20 b7 c4 39
       0.0003880929 0.00024473472 0.00032052415 0.00037520472
000180 ce 37 1e ba 13 8c 26 b9 4a 07 b5 b9 e5 8f bf 39
       -0.0006035537 -0.00015883175 -0.0003452844 0.0003653757
000190 b3 74 94 39 93 5b 32 ba ef ec 36 ba 58 e2 72 b8
       0.00028315707 -0.0006803807 -0.0006978055 -5.7908095e-05
0001a0 7f 73 60 b9 11 c2 95 38 5e 3a a8 b9 50 f5 9d b9
       -0.0002140533 7.141021e-05 -0.00032086944 -0.00030128146
0001b0 ea 6e e3 37 b5 6b 76 39 9b 4d 0b 3a f9 e2 3a 39
       2.7112157e-05 0.00023500512 0.00053139933 0.00017822896
0001c0 bd 3c 11 38 53 5d 1b 3a 65 d9 2e b6 60 64 5f 39
       3.462726e-05 0.0005926687 -2.605456e-06 0.0002130433
0001d0 64 89 65 b8 ba 27 dc b9 e7 c9 0b 3a 8b ba 03 ba
       -5.472581e-05 -0.00041991269 0.0005332515 -0.00050250505
0001e0 91 8e 34 ba 19 62 aa b7 a1 4c 0c ba 7e 3c 09 b9
       -0.0006887699 -2.031126e-05 -0.0005351995 -0.00013087873
0001f0 6e 0d 0c 3a fb 5e c5 38 59 d9 e5 b9 5b c0 44 b8
       0.00053425774 9.4113835e-05 -0.0004384022 -4.6909186e-05
000200 e1 2a 28 ba b2 65 b5 39 c2 0c b0 39 74 82 78 39
       -0.0006415081 0.0003459878 0.0003357884 0.0002369972
000210 70 b4 f3 b9 1e 14 32 3a 91 3d 64 b9 36 61 b6 39
       -0.00046483008 0.0006793159 -0.0002176671 0.00034786173
000220 a8 d1 b5 b9 dd 09 11 3a f7 5a 19 39 4b a9 16 b9
       -0.00034679216 0.0005532781 0.00014625104 -0.00014368181
000230 5e eb 9b b7 70 32 8b b9 90 ca 8b 39 1e ca 2d 39
       -1.8587041e-05 -0.00026549725 0.00026663067 0.0001657386
000240 11 e0 2f b9 88 de 73 b8 3f 30 06 ba bb 1e 1a ba
       -0.00016772772 -5.8142963e-05 -0.00051188836 -0.0005879213
000250 85 36 d1 b9 0d cb 19 b7 fa 63 a1 b9 88 47 bb 37
       -0.00039904207 -9.166787e-06 -0.000307828 2.2325446e-05
000260 9e dd a7 39 4e 74 3b b9 3f 2b 03 39 53 c2 71 36
       0.0003201784 -0.00017877037 0.00012509244 3.602491e-06
000270 b0 7e 89 b7 55 79 a5 38 6a e7 4a 39 21 39 db b8
       -1.6390666e-05 7.890413e-05 0.0001935043 -0.00010453375
000280 2a f5 f7 b8 29 ed f5 b9 d2 61 11 b9 c8 f3 0c ba
       -0.00011823543 -0.0004690674 -0.00013864718 -0.00053769024
000290 5f d9 17 b9 48 71 5c 39 ec f7 ae 39 de 7b 1e 3a
       -0.00014481459 0.00021023036 0.00033372582 0.00060456793
0002a0 be 81 67 b7 1c 02 8c b9 69 ae fb 38 09 63 3d 3a
       -1.3798881e-05 -0.00026704452 0.00012001099 0.0007224535
0002b0 6a 96 8c b9 20 da c4 b9 e7 c7 93 b8 ac 7e a3 b9
       -0.00026814948 -0.0003754655 -7.046741e-05 -0.0003118416
0002c0 06 c6 42 ba ba 43 93 38 86 79 d8 b9 65 b7 b3 39
       -0.00074300205 7.022121e-05 -0.00041289272 0.0003427818
0002d0 99 a5 63 b9 b6 ed 93 b9 b2 dc 12 b8 22 9d 07 ba
       -0.00021710097 -0.00028215133 -3.501465e-05 -0.0005173256
0002e0 53 c4 53 b9 0d 8c 34 ba 04 50 dd b8 cd 27 71 39
       -0.00020195665 -0.0006887324 -0.00010553005 0.00022998378
0002f0 ef 11 cc 39 99 03 82 b7 c8 ff d9 b9 34 4d df b9
       0.00038923274 -1.5498883e-05 -0.00041580037 -0.00042591395
000300 7e 61 4e 39 8e 28 24 39 63 ff 45 b9 c3 3d 06 ba
       0.0001968201 0.00015655367 -0.00018882523 -0.00051208975
000310 8d 5f 82 38 8b 76 09 b9 a9 e2 d7 b8 69 2f 1f ba
       6.216681e-05 -0.00013109499 -0.00010294218 -0.00060724333
000320 ae 93 d7 37 f4 46 a4 b9 40 8c 60 b9 e7 92 c0 39
       2.5698766e-05 -0.00031333382 -0.00021414552 0.00036730545
000330 fd de 7e b8 03 60 01 3a 3a 68 41 ba f4 1c 51 b9
       -6.0765993e-05 0.00049352663 -0.00073778967 -0.00019942579
000340 e2 8a 6b b8 93 e3 90 b9 65 67 ec b8 d8 4f 04 3a
       -5.615771e-05 -0.00027635376 -0.00011272616 0.0005047298
000350 6f 49 90 39 5d 1d ea b9 bd c7 30 b9 db 00 00 3a
       0.00027520533 -0.00044653835 -0.00016859076 0.000488294
000360 ae cb 5b 39 bc 0b 9a 39 43 3f f3 39 d6 82 c6 39
       0.00020961344 0.00029381912 0.00046395705 0.00037862983
000370 23 52 02 3a 93 eb 47 3a a3 2b 9f b9 c3 a3 bd 39
       0.0004971346 0.0007626351 -0.00030359355 0.000361709
000380 79 4b 80 b9 6e c6 eb b9 07 af f0 38 4f 2e 88 b7
       -0.00024470294 -0.00044970535 0.00011476693 -1.6234027e-05
000390 7f 1c cd b9 35 05 c3 39 4b 52 9c b8 21 67 2d b9
       -0.00039121878 0.00037197178 -7.453988e-05 -0.00016536984
0003a0 e7 85 16 ba cf 2a 8e 38 93 f5 49 b8 9e 17 93 39
       -0.0005741999 6.7790614e-05 -4.8150843e-05 0.0002805562
0003b0 70 16 31 b9 dc 04 99 39 c0 0b 2c 39 15 8f 19 39
       -0.00016888394 0.00029186055 0.00016407575 0.00014644519
0003c0 e3 2b 00 3a 3d 5a 86 38 8b 39 89 39 78 2f 0d 38
       0.0004889352 6.406426e-05 0.0002617355 3.366123e-05
0003d0 e6 19 19 b9 65 10 b8 b9 43 9a 23 b8 48 b0 a2 b7
       -0.00014600865 -0.0003510743 -3.9005896e-05 -1.9393992e-05
0003e0 02 ae 22 3a 73 4b 55 39 c3 29 02 3a 3d b4 2c 3a
       0.0006205739 0.0002034137 0.00049653294 0.0006588137
0003f0 79 c6 ba 38 f2 52 b8 b9 05 e4 6b b9 39 ea 32 39
       8.9061396e-05 -0.00035157014 -0.0002249629 0.00017062658
