checkpoints_norewardshape/checkpoint-999/value_head.pt (torch, 10109 bytes, 1 tensors)

weight f4 [1, 2048]
0	0xba4ecdc3	-0.0007888937
1	0x3a8483c0	0.0010110065
2	0x3a5cb8c1	0.00084198645
3	0xb9d2e483	-0.00040224576
4	0x3a011419	0.0004923954
5	0xba565dc9	-0.0008177427
6	0x3a73b02b	0.00092959654
7	0x39a8c2e0	0.0003218865
8	0xb9cac011	-0.00038671543
9	0x3a52057c	0.00080116815
10	0x3a389173	0.00070407166
11	0x3a086603	0.0005203189
12	0xba5cbdf8	-0.00084206415
13	0xba610df9	-0.0008585151
14	0xba406906	-0.00073398685
15	0xba0da7a7	-0.0005403705
16	0x3a6adc57	0.0008959225
17	0xba6c295f	-0.00090088503
18	0x3a348990	0.00068869535
19	0xba3cfaf5	-0.00072090264
20	0xba168684	-0.000574209
21	0x3a5ac5a0	0.00083454885
22	0xb9f69507	-0.0004703181
23	0x398e32b1	0.0002712212
24	0xba8de4c7	-0.0010825627
25	0xba3dac67	-0.0007235468
26	0xb9fc134f	-0.00048079572
27	0x39c91235	0.00038351273
28	0xba444a95	-0.000748792
29	0x3a2b4b98	0.00065343967
30	0x3a099fbe	0.00052499387
31	0xba38ca11	-0.0007049153
32	0xba3f3108	-0.0007293378
33	0x3a312581	0.00067576027
34	0xb9f0a684	-0.0004590043
35	0xba0ed8d9	-0.0005449183
36	0x3a7fbd70	0.00097557064
37	0xba08eb7b	-0.00052230776
38	0xba3b9b8d	-0.0007156663
39	0xba4ed915	-0.0007890624
40	0xba312e0d	-0.0006758876
41	0xba6de450	-0.0009074854
42	0x3a237a50	0.00062361825
43	0x3a38a355	0.00070433813
44	0x3a4b28e1	0.0007749927
45	0xb9fbd464	-0.00048032694
46	0x3a46ff65	0.00075911573
47	0x3a34f401	0.00069028145
48	0x3a4d5341	0.0007832535
49	0xba50d8c3	-0.00079668703
50	0x3a8ca009	0.0010728847
51	0xba15d7e1	-0.00057160674
52	0x3a3f48c5	0.0007296915
53	0xba7d4908	-0.00096620666
54	0xba556269	-0.00081399694
55	0x3a23aedb	0.0006244012
56	0xba3b21e4	-0.0007138534
57	0xba221c39	-0.0006184015
58	0x3a16eb1c	0.000575708
59	0x3a558413	0.0008144986
60	0xba554640	-0.0008135773
61	0x39bbb3aa	0.0003580128
62	0xba89a429	-0.0010501194
63	0x3a3df522	0.00072463055
64	0xba4a7103	-0.00077225285
65	0xba279063	-0.000639206
66	0x3a3013ca	0.0006716816
67	0x3a4b53d6	0.0007756328
68	0x3a8282f6	0.0009957242
69	0x3a8debc1	0.0010827706
70	0x3a3b2e13	0.00071403495
71	0x3a4e0261	0.0007858631
72	0xba3fa305	-0.00073103636
73	0xba4f39b3	-0.0007905021
74	0x3a762678	0.00093898876
75	0xba203689	-0.0006111642
76	0xba94b08d	-0.001134412
77	0xb9afd3d2	-0.0003353642
78	0x396690ea	0.00021988494
79	0xba849db3	-0.0010117799
80	0xba95545e	-0.0011392941
81	0x3a14868a	0.00056658
82	0x3a616f30	0.0008599637
83	0xb9d31540	-0.0004026089
84	0xba291a42	-0.0006450751
85	0xba13f085	-0.0005643445
86	0x3a47c67d	0.00076208246
87	0x3a88417b	0.0010395491
88	0xba22f1a1	-0.0006215815
89	0xb9fcc730	-0.00048213592
90	0xb9dac9ba	-0.00041730498
91	0x3a6916a2	0.0008891617
92	0x3a072786	0.0005155731
93	0xba319ce4	-0.00067753927
94	0xb9b7b5c6	-0.00035039912
95	0xba47cf9a	-0.00076221826
96	0x3922ca1a	0.00015524813
97	0xba1c1eea	-0.0005955534
98	0x3a42dc6e	0.0007433359
99	0x3a7ab3df	0.0009563546
100	0x3a30e4ab	0.00067479414
101	0xb9086cf6	-0.00013010562
102	0x39779e58	0.00023614743
103	0xb9b1f465	-0.0003394216
104	0x393a8361	0.00017787285
105	0xba0229d0	-0.0004965337
106	0xb9c5c6ad	-0.00037722793
107	0x39b5c0f3	0.0003466677
108	0x3a2ea7ef	0.00066625973
109	0xb9f8e184	-0.00047470268
110	0x3a6b6807	0.000898004
111	0x3a1d7448	0.0006006402
112	0xba795f54	-0.0009512801
113	0x3a52dd4e	0.0008043841
114	0x3a54df94	0.0008120474
115	0x3a0c4e07	0.0005352203
116	0x3983b897	0.00025123797
117	0xba3f6393	-0.00073009095
118	0xba22b1e6	-0.00062063185
119	0xb9f5c05f	-0.0004687337
120	0xba88e2c6	-0.001044356
121	0xba54c599	-0.00081166025
122	0xba89df07	-0.0010518738
123	0x3a063a6f	0.00051204016
124	0xba249a90	-0.0006279135
125	0x39c411e3	0.0003739736
126	0xba988086	-0.0011634983
127	0xb904124b	-0.00012595316
128	0xba69c83f	-0.00089180836
129	0xb9beeab4	-0.00036414491
130	0xba3add7f	-0.00071283424
131	0x3a3ebb79	0.00072758604
132	0x39f5022b	0.00046731657
133	0x39c61978	0.0003778448
134	0xb8bfacf3	-9.139804e-05
135	0x3a807820	0.0009801425
136	0xb9f6c57d	-0.00047067917
137	0x39bfd9c3	0.00036592604
138	0xb9aff887	-0.00033563768
139	0xba573e4e	-0.0008210883
140	0xb9e4dff7	-0.00043654416
141	0x3a0090e9	0.0004904406
142	0x3a6718a1	0.00088156207
143	0x3a1af1cd	0.0005910665
144	0xba11f081	-0.0005567149
145	0xba34e6b0	-0.000690083
146	0xba29d372	-0.0006478346
147	0x3a45a0a7	0.00075388927
148	0xba485ec2	-0.00076435145
149	0xba1f2894	-0.0006071415
150	0xba3a144f	-0.0007098363
151	0xba1c8487	-0.0005970676
152	0xba8239db	-0.0009935455
153	0xba147c46	-0.000566427
154	0x3a78a1bf	0.0009484551
155	0xba2d3338	-0.00066070585
156	0xba8f3d9c	-0.0010928395
157	0xba11f5e0	-0.0005567949
158	0xba3ef535	-0.00072844635
159	0xb9ce5c31	-0.0003936007
160	0xba30f2c1	-0.00067500403
161	0xb9e0f042	-0.00042903615
162	0xba52be8d	-0.00080392585
163	0xb9f11287	-0.00045980906
164	0xba5c3d70	-0.0008401489
165	0x3a3acad4	0.00071255607
166	0xba8288b1	-0.000995895
167	0x39ec384a	0.00045055366
168	0xba17b0ec	-0.0005786556
169	0xba211f06	-0.00061462855
170	0x38c40771	9.3473944e-05
171	0x3a53660a	0.0008064216
172	0xba0d19a5	-0.00053825445
173	0xb943e5cf	-0.0001868226
174	0x3a573ae8	0.0008210377
175	0x3a65524d	0.00087479205
176	0xba026de6	-0.00049754826
177	0xba3c675e	-0.0007187034
178	0xba514237	-0.0007982584
179	0x3a1e13ef	0.0006030192
180	0x39ec3889	0.0004505555
181	0x3a447a52	0.0007495034
182	0xba8c0206	-0.0010681755
183	0x3a09d5f4	0.0005258017
184	0x39c7f0d5	0.00038135672
185	0x3a31c9e2	0.0006782097
186	0xba77521d	-0.0009434538
187	0x3a1c651d	0.0005965995
188	0x3a4e7532	0.000787574
189	0xba044be2	-0.0005046708
190	0x3a2b6fc7	0.00065397884
191	0xba1161de	-0.00055458944
192	0x3a2bbfe1	0.00065517245
193	0xba214fe7	-0.0006153569
194	0x3a34d99f	0.0006898883
195	0xba06de06	-0.00051447784
196	0xb7aceaa3	-2.0613259e-05
197	0x3a842513	0.001008185
198	0x3a13bea3	0.0005636012
199	0xba3350bd	-0.0006840339
200	0x39ae92c0	0.00033297203
201	0xba36e2ae	-0.0006976527
202	0x3a52057a	0.00080116803
203	0x3a850f66	0.0010151684
204	0xb9c7c3d0	-0.0003810213
205	0x3a015167	0.00049330894
206	0xba4f2eb3	-0.0007903382
207	0x3a2d47d2	0.00066101283
208	0x39ad2d1c	0.0003303074
209	0xba1648e3	-0.0005732907
210	0xba5c0bd3	-0.0008394096
211	0x3a0fe854	0.00054896367
212	0x39abb39e	0.00032749487
213	0x3990f093	0.00027645062
214	0xba2a33a3	-0.000649268
215	0xba020504	-0.0004959854
216	0x39f6f14e	0.00047100562
217	0xba547af1	-0.0008105478
218	0x3a41bcc6	0.0007390495
219	0x39b230fd	0.00033987305
220	0x3a3e8153	0.00072671956
221	0x384195a7	4.615416e-05
222	0xba4ea8f4	-0.00078834523
223	0xb9b0b2bd	-0.00033702506
224	0xba740b81	-0.00093095755
225	0x3a7d7baa	0.00096696115
226	0xb9f654b9	-0.000469839
227	0xb9c2fa49	-0.0003718904
228	0xb9ca48a4	-0.00038582564
229	0x3a04843f	0.00050551066
230	0x3a1628bd	0.00057281164
231	0xba0ce850	-0.00053751934
232	0x39f0f50a	0.00045958936
233	0xba42d195	-0.0007431743
234	0xba394e4a	-0.0007068856
235	0x3a65e324	0.00087695033
236	0xba8163d7	-0.0009871674
237	0xb9dff448	-0.00042715878
238	0x3a0eed7b	0.00054522575
239	0xba47dc60	-0.0007624086
240	0x39dd87da	0.00042253622
241	0x39f8ee8a	0.00047479972
242	0xba2b65c0	-0.0006538294
243	0xba8df10c	-0.0010829284
244	0x3a644790	0.00087081734
245	0xba4cffab	-0.000782008
246	0xba67da9e	-0.0008844527
247	0xba890615	-0.0010454083
248	0x3a49f4f1	0.00077040406
249	0xba7e4936	-0.00097002403
250	0x3a5a41b6	0.0008325832
251	0x3a12704b	0.0005586191
252	0x3a31d54f	0.00067837996
253	0xb9f5ce99	-0.0004688397
254	0xb91dbad6	-0.00015042289
255	0x3a0e9b80	0.00054400414
