checkpoints-private-cot/checkpoint-20/value_head.pt (torch, 10109 bytes, 1 tensors)

weight f4 [1, 2048]
00000000: 3050 2ab9 b229 be39 c6aa c438 0471 45ba
00000010: e18b b6b9 787e b8b9 3e6d d7b8 2b9a 2d3a
00000020: 726a 89b9 c1d6 9db9 346e cdb9 bbea aa39
00000030: 8071 d0b9 6e8a 4338 a861 9fb9 266a 5fb6
00000040: fb64 9439 c1cb 3036 4505 c236 57b2 9338
00000050: ec8c 003a d04e cb39 3b6e 243a 4647 1138
00000060: cb81 2939 fa15 7ab9 cdb0 bdb9 41d1 c439
00000070: dcad 69b8 7677 a639 88cb 8d39 46f0 db39
00000080: dabb 91b9 5162 1039 b448 c0b8 b4ad 80b9
00000090: fe97 1e3a a173 5fba b551 abb9 4e20 58b9
000000a0: 5ffd 4b39 dd93 f539 6d6a 6b39 f182 9839
000000b0: cf14 1539 edba f638 8fed 86b7 8fc5 9c39
000000c0: 1c0b 2639 1d7e f0b9 5a87 a1b8 f8de c1b9
000000d0: d191 8c39 b0df 1539 9bb8 e637 f631 fab8
000000e0: f227 b4b8 080f fcb8 ce72 0d39 3762 96b9
000000f0: e217 8c39 bba3 d5b8 e687 83b9 f87b 0139
00000100: 672f d439 3c46 cdb9 8857 abb9 62d2 c9b8
00000110: a04a 9838 c64f b239 6e24 f7b8 4063 cf39
00000120: 172f 9eb9 3b8b 64b8 5c00 f6b7 d2bf 2739
00000130: d64b 3eb9 887c 26ba 0ed9 f838 9140 9a39
00000140: a404 aeb9 d603 1db8 cc24 38b7 0fbf 3f39
00000150: 974b 3db9 798e 00b9 8111 5eb9 8f8f 4bb9
00000160: 55d5 04ba 6dbe 5db9 ef86 46ba 9aa0 1639
00000170: 9188 4539 b4a3 5039 a899 74b9 126e bf39
00000180: bb3c bab9 9a15 e4b9 637f 123a d1ee b038
00000190: 8e30 8939 c5d8 77b9 2df7 e4b9 4cc2 8138
000001a0: e5b8 bab9 9a13 dc38 7cab f8b9 be78 ab39
000001b0: 502e 32b9 f669 4a36 4a1d 0bb9 24d1 4439
000001c0: f9b6 e9b9 0afb 07b9 8a88 8639 3311 36b9
000001d0: e9e1 1ab9 354f 54b9 c2df 31ba 81db 1db8
000001e0: 4054 14ba be3e 9839 70b0 91b9 ebb4 8ab9
000001f0: 908c d9b9 9e5a 0438 9f94 34b9 1479 c6b8
00000200: 618d 1aba af2c c838 c796 96b9 afb9 0438
00000210: 0b2c 6eb9 fdf8 3239 aac7 1ab9 6ee5 b039
00000220: 15b0 bab8 ee6b 4b36 3f37 04b8 ade6 ceb7
00000230: 8c19 e139 05da 37b9 fa66 d039 ef82 bd39
00000240: fa1a 89b9 3094 b9b9 1470 b4b9 4bdb 8737
00000250: 617e 9ab8 1ad0 1eb8 12e0 97b9 67b9 26ba
00000260: d905 c4b8 950b a4b9 c9a0 8338 6198 1a39
00000270: 3123 11ba 9f48 9c38 97f8 1aba 5cc5 27b9
00000280: aa00 fa38 5597 eab8 4218 053a 12e7 41b9
00000290: 0758 bcb9 79e9 1e39 b7b8 5039 0e93 9839
000002a0: d095 0239 a4bd 503a 4aa5 d2b9 3e95 c9b9
000002b0: f7c6 a139 e8b9 b6b9 9a41 34b8 3c88 a8b9
000002c0: abeb 06b9 6dbd ffb9 a382 35b9 df87 b5b7
000002d0: 0251 0f3a 6bc2 74b8 8a02 dbb8 c736 88b9
000002e0: db1c 0db9 6647 9439 882d 5939 66bc 35b9
000002f0: 017c d0b9 d0a5 3639 ac2f dd38 9ff5 25ba
00000300: c49b 9f39 903b 9db9 53ae 7db8 6206 b3b9
00000310: d1cb a8b9 3518 62b9 7728 d038 d984 1a38
00000320: f819 61b9 0ef5 2c39 c0dc 9339 833b 2139
00000330: bda7 b439 b85c 7a3a 3d40 82b9 266e 303a
00000340: 2bb8 e139 589f 8c39 96cd b539 6036 5b39
00000350: 47b4 3639 b190 9cb9 f423 41ba 9676 dc39
00000360: 1940 0a3a c426 1238 3991 2039 6be1 8bb9
00000370: e0bc 113a d0c5 8db7 30b7 2f39 496a 57ba
00000380: 9e63 55b9 09da 32ba 9a9c cfb8 048d 1c3a
00000390: 8e57 5fb9 1990 9f39 b874 a4b9 7716 d839
000003a0: 1e53 4b37 2574 10b9 edd5 3438 3272 b939
000003b0: c497 46ba fbc7 0339 c0d4 2638 30b1 83b9
000003c0: e26d cfb9 a9e9 a1b9 ac58 62b9 7ccb 6f39
000003d0: a476 9939 06bb 8eb9 2095 edb8 c689 4f39
000003e0: 959f 453a c3ae 0639 94dc 543a 771f cd39
000003f0: 47b5 a339 714b 1cb9 d6b0 5237 992b 6038
-0.00016242336 0.0003627069 9.377817e-05 -0.0007531794 -0.00034817963 -0.0003518944 -0.00010272347 0.0006622399
-0.00026209984 -0.00030105378 -0.00039182755 0.00032599815 -0.00039757416 4.6620546e-05 -0.00030399603 -3.3291376e-06
0.00028303996 2.6344644e-06 5.782264e-06 7.0427246e-05 0.00049038115 0.00038777897 0.0006272529 3.4637073e-05
0.00016165448 -0.00023850045 -0.00036180616 0.0003753994 -5.5713448e-05 0.00031750993 0.00027045258 0.00041949953
-0.00027796515 0.00013769536 -9.1688154e-05 -0.0002454348 0.000604987 -0.0008524005 -0.00032676538 -0.000206114
0.00019453977 0.00046840208 0.00022450993 0.00029089258 0.00014217499 0.00011765012 -1.6084667e-05 0.0002990183
0.00015835132 -0.0004587033 -7.7022894e-05 -0.00036977953 0.00026811523 0.00014293077 2.75041e-05 -0.00011930235
-8.590509e-05 -0.00012019096 0.00013489576 -0.00028683405 0.00026720675 -0.00010187129 -0.0002508752 0.0001234858
0.00040471109 -0.00039152976 -0.00032680877 -9.623614e-05 7.261825e-05 0.00034010242 -0.000117846634 0.00039556064
-0.00030171193 -5.4489105e-05 -2.9325653e-05 0.0001599782 -0.00018148063 -0.0006350954 0.00011865991 0.00029421275
-0.00033191324 -3.743529e-05 -1.0975822e-05 0.00018286354 -0.00018052604 -0.00012260106 -0.0002117809 -0.00019413068
-0.00050671893 -0.00021147142 -0.0007573207 0.00014364943 0.00018838259 0.0001989741 -0.00023326895 0.00036512368
-0.00035521932 -0.00043503643 0.000558844 8.436817e-05 0.00026166852 -0.00023636509 -0.0004367171 6.18739e-05
-0.00035614442 0.000104940686 -0.00047430012 0.00032705622 -0.00016992656 3.0162023e-06 -0.00013266984 0.00018769928
-0.00044577548 -0.00012968123 0.000256602 -0.0001736328 -0.00014770743 -0.00020247402 -0.00067853567 -3.7636146e-05
-0.0005658306 0.00029038446 -0.0002778801 -0.00026456206 -0.00041494193 3.1555646e-05 -0.00017221503 -9.463928e-05
-0.0005895701 9.545066e-05 -0.00028722567 3.1644184e-05 -0.00022713856 0.00017068158 -0.00014760965 0.00033740274
-8.901969e-05 3.031218e-06 -3.1522704e-05 -2.466453e-05 0.00042934378 -0.00017533459 0.00039749575 0.00036146442
-0.00026150775 -0.00035396358 -0.0003441578 1.619537e-05 -7.366832e-05 -3.7863945e-05 -0.0002896791 -0.00063600246
-9.3470975e-05 -0.00031289147 6.276515e-05 0.0001474335 -0.0005536555 7.4521864e-05 -0.00059116766 -0.00015999883
0.00011921053 -0.00011186177 0.0005077162 -0.00018491995 -0.0003592374 0.0001515503 0.00019905237 0.00029101263
0.00012453576 0.0007962829 -0.0004017747 -0.00038448902 0.00030856553 -0.00034852256 -4.297644e-05 -0.0003214496
-0.00012867029 -0.00048778523 -0.00017310171 -2.1640151e-05 0.0005467088 -5.83552e-05 -0.00010443207 -0.00025980754
-0.00013457557 0.00028281956 0.00020711694 -0.00017331689 -0.00039765242 0.00017418643 0.00010546981 -0.0006330851
0.00030442898 -0.0002998975 -6.0482253e-05 -0.00034146296 -0.00032195312 -0.00021562057 9.92575e-05 3.6840185e-05
-0.00021467346 0.00016494488 0.00028202496 0.00015376326 0.0003445725 0.00095505593 -0.00024843393 0.00067302806
0.0004305256 0.000268216 0.00034676184 0.00020905724 0.00017424031 -0.00029862442 -0.0007367723 0.00042050023
0.00052738335 3.4845216e-05 0.00015312889 -0.00026680095 0.00055594556 -1.6900623e-05 0.00016757543 -0.0008217437
-0.00020350373 -0.0006822651 -9.8996985e-05 0.00059719407 -0.00021299554 0.00030434204 -0.0003136748 0.00041215468
1.2119095e-05 -0.00013776177 4.3114578e-05 0.00035371032 -0.00075757154 0.00012567632 3.9775623e-05 -0.00025118282
-0.00039563986 -0.00030882403 -0.00021586072 0.0002286862 0.00029270828 -0.00027223694 -0.00011328817 0.00019792383
0.0007538733 0.0001284434 0.0008120027 0.0003912409 0.00031224845 -0.00014905423 1.2558148e-05 5.3446365e-05
