checkpoints-private-cot/checkpoint-25/value_head.pt (torch, 10109 bytes, 1 tensors)

weight f4 [1, 2048]
0	0xb92738df	-0.00015947547
1	0x39bc46e8	0.00035910984
2	0x38c62848	9.448879e-05
3	0xba44b533	-0.00075038074
4	0xb9b7b93a	-0.00035042485
5	0xb9b6bb7e	-0.00034853438
6	0xb8da3365	-0.00010404623
7	0x3a2cb067	0.00065875653
8	0xb9884a72	-0.00025995407
9	0xb99d552c	-0.00030008832
10	0xb9cc1dd4	-0.00038932136
11	0x39a9f0e9	0.00032413684
12	0xb9cf5a9a	-0.0003954962
13	0x383e4829	4.5366734e-05
14	0xb99eb724	-0.0003027256
15	0xb519cb03	-5.729236e-07
16	0x399454d4	0.00028291962
17	0x35a7be6e	1.2497892e-06
18	0x3625df92	2.471705e-06
19	0x3893266b	7.016662e-05
20	0x3a00d4e8	0.0004914538
21	0x39c998e4	0.0003845162
22	0x3a24df7d	0.0006289406
23	0x3812861a	3.4934004e-05
24	0x392989d4	0.00016168441
25	0xb97a6974	-0.00023881142
26	0xb9bbb966	-0.00035805552
27	0x39c34ac3	0.00037249
28	0xb85d076b	-5.2697415e-05
29	0x39a613e4	0.00031676807
30	0x398c2c54	0.00026735908
31	0x39db1737	0.00041788231
32	0xb992277a	-0.00027876702
33	0x390e86c4	0.0001359238
34	0xb8be2d8e	-9.068391e-05
35	0xb97e2eb5	-0.00024240727
36	0x3a1e2999	0.000603342
37	0xba5e903e	-0.00084901217
38	0xb9aa3455	-0.00032463917
39	0xb95664fe	-0.00020446253
40	0x3948f602	0.00019165131
41	0x39f4f582	0.00046722224
42	0x396b43d7	0.00022436619
43	0x3997c26e	0.00028945826
44	0x39138069	0.00014066849
45	0x38f454d1	0.00011650625
46	0xb7975005	-1.8037865e-05
47	0x399da415	0.00030067624
48	0x3921b484	0.00015421404
49	0xb9f02a5e	-0.00045807933
50	0xb89be905	-7.434379e-05
51	0xb9c14ce9	-0.0003686913
52	0x398b66aa	0.00026588637
53	0x3912e3a1	0.00014008443
54	0x380169b1	3.085443e-05
55	0xb8f673cb	-0.00011751762
56	0xb8b0f198	-8.437334e-05
57	0xb8f645ec	-0.00011743218
58	0x390fab00	0.00013701245
59	0xb9970fb2	-0.00028812658
60	0x398b400f	0.00026559873
61	0xb8d09b75	-9.947169e-05
62	0xb981c096	-0.00024748285
63	0x39042780	0.00012603216
64	0x39d2ae1a	0.00040184037
65	0xb9cc7ff5	-0.00039005248
66	0xb9ab5578	-0.0003267934
67	0xb8cd334c	-9.7847165e-05
68	0x389ac119	7.3792595e-05
69	0x39b04b4d	0.0003362544
70	0xb8fae973	-0.00011964412
71	0x39cf75bc	0.00039569836
72	0xb99c9b8f	-0.0002987054
73	0xb8605fad	-5.3494867e-05
74	0xb7f462bc	-2.9133043e-05
75	0x39265202	0.00015861544
76	0xb93c49bf	-0.0001795655
77	0xba27045a	-0.0006371193
78	0x38f719df	0.00011782697
79	0x3999e43a	0.00029352476
80	0xb9ad83f7	-0.00033095453
81	0xb814ce4c	-3.547808e-05
82	0xb73f9e5d	-1.1421359e-05
83	0x39415970	0.00018439232
84	0xb93c6a04	-0.00017968571
85	0xb8fc8850	-0.000120416866
86	0xb95fea68	-0.0002135426
87	0xb94b9aa8	-0.00019417203
88	0xba051700	-0.00050769746
89	0xb95d9966	-0.00021133348
90	0xba4608bc	-0.0007554402
91	0x391366f1	0.00014057361
92	0x3943403a	0.00018620575
93	0x3951583a	0.0001996466
94	0xb970f25f	-0.00022978474
95	0x39be9478	0.00036350242
96	0xb9baa9b7	-0.00035603132
97	0xb9e293ba	-0.00043216144
98	0x3a11cc99	0.00055617985
99	0x38a9da56	8.099216e-05
100	0x398900c3	0.00026131244
101	0xb97451dd	-0.0002330015
102	0xb9e4c7ae	-0.00043636322
103	0x3887c941	6.474788e-05
104	0xb9bab4bf	-0.0003561135
105	0x38da9aea	0.00010423905
106	0xb9f809d7	-0.00047309577
107	0x39aa9a4b	0.00032539884
108	0xb934340d	-0.00017185528
109	0x362becae	2.5618751e-06
110	0xb90edd10	-0.00013624527
111	0x3941a9c2	0.00018469154
112	0xb9e89882	-0.00044364115
113	0xb907fb1b	-0.00012968147
114	0x39852280	0.0002539344
115	0xb9379cd6	-0.00017510666
116	0xb91a3371	-0.00014705748
117	0xb950fb22	-0.0001992998
118	0xba30ac5d	-0.00067395513
119	0xb8197d65	-3.6594825e-05
120	0xba13ba87	-0.00056354
121	0x39974045	0.0002884885
122	0xb9901948	-0.00027484656
123	0xb989ecbc	-0.00026307057
124	0xb9da5059	-0.00041640064
125	0x37ebdc8d	2.8116885e-05
126	0xb931123d	-0.0001688683
127	0xb8c118c4	-9.20757e-05
128	0xba19bfc5	-0.00058650627
129	0x38cb2ab5	9.687749e-05
130	0xb9969215	-0.0002871907
131	0x380a3cfb	3.2958556e-05
132	0xb96c7991	-0.00022552001
133	0x392f9069	0.00016743098
134	0xb9165cf2	-0.0001433974
135	0x39afaf62	0.0003350927
136	0xb8b47c4a	-8.6062195e-05
137	0x35844b5e	9.856701e-07
138	0xb7f94305	-2.9714321e-05
139	0xb7b6fa87	-2.1812752e-05
140	0x39df6a6a	0.0004261316
141	0xb935e510	-0.00017346838
142	0x39cfb48e	0.0003961664
143	0x39bd4e23	0.00036107106
144	0xb987ceed	-0.00025903378
145	0xb9b88d97	-0.00035200707
146	0xb9b3258b	-0.00034169512
147	0x37931633	1.7534103e-05
148	0xb894ece6	-7.101316e-05
149	0xb810e090	-3.4541416e-05
150	0xb998678d	-0.0002906885
151	0xba25ffab	-0.0006332348
152	0xb8caae20	-9.664544e-05
153	0xb9a329d4	-0.00031120947
154	0x387a2f1f	5.964853e-05
155	0x391c0ead	0.00014882786
156	0xba10e73a	-0.00055276195
157	0x389dfeb3	7.533785e-05
158	0xba1a0e89	-0.00058767997
159	0xb925d627	-0.00015815404
160	0x38f9c11c	0.00011909215
161	0xb8e5fd7d	-0.00010966787
162	0x3a04b391	0.0005062158
163	0xb93e5701	-0.00018152223
164	0xb9ba9918	-0.00035590748
165	0x391c5161	0.00014907635
166	0x394ecd09	0.00019722072
167	0x3997b3a0	0.00028934795
168	0x390213b9	0.00012405113
169	0x3a50eec2	0.0007970148
170	0xb9d265d8	-0.000401302
171	0xb9c8334d	-0.00038185195
172	0x399f9c74	0.0003044341
173	0xb9b5d6a3	-0.00034682927
174	0xb8428105	-4.6373363e-05
175	0xb9a7f5c2	-0.00032035826
176	0xb9054849	-0.00012710797
177	0xb9fe7fdc	-0.00048541918
178	0xb9327515	-0.0001701902
179	0xb7d44539	-2.5304604e-05
180	0x3a0e6f42	0.0005433449
181	0xb881453d	-6.164096e-05
182	0xb8d67a3b	-0.000102270824
183	0xb9867e74	-0.00025652687
184	0xb90d2cf4	-0.00013463554
185	0x3992f009	0.0002802613
186	0x395ac5b4	0.0002086375
187	0xb9350ddd	-0.0001726667
188	0xb9d0f973	-0.00039858706
189	0x3934d316	0.00017244773
190	0x38e0b7b0	0.00010715367
191	0xba2536be	-0.0006302408
192	0x399f08a7	0.0003033329
193	0xb99b8051	-0.00029659507
194	0xb8756179	-5.850333e-05
195	0xb9b2464d	-0.00034003184
196	0xb9a6b67f	-0.00031797957
197	0xb9634c58	-0.00021676847
198	0x38d2ac17	0.000100456346
199	0x3820c34c	3.8328857e-05
200	0xb95ea71f	-0.00021233827
201	0x392d3261	0.00016517333
202	0x39926834	0.00027924927
203	0x391e2d1a	0.00015084856
204	0x39b32e5b	0.00034176078
205	0x3a79abe8	0.0009524212
206	0xb9807199	-0.000244987
207	0x3a2fad33	0.0006701529
208	0x39e0a68a	0.0004284869
209	0x398b8771	0.00026613058
210	0x39b68b4d	0.00034817532
211	0x3958442b	0.0002062476
212	0x39343d3d	0.00017188951
213	0xb99c6f57	-0.00029837593
214	0xba4097e4	-0.0007346852
215	0x39dd6440	0.00042227097
216	0x3a0a3632	0.0005272358
217	0x38182ea4	3.628306e-05
218	0x391f87c5	0.00015214
219	0xb98d76a6	-0.00026982016
220	0x3a113142	0.0005538651
221	0xb7a0f8ba	-1.9189309e-05
222	0x39325c96	0.00017009894
223	0xba569ab9	-0.00081865076
224	0xb953b842	-0.0002019117
225	0xba3243b9	-0.00068002526
226	0xb8d37eb7	-0.000100848665
227	0x3a1bb3fe	0.00059396017
228	0xb95c7308	-0.00021023687
229	0x39a069c3	0.00030596377
230	0xb9a44f05	-0.00031339392
231	0x39d6a986	0.00040943566
232	0x373c2711	1.1214769e-05
233	0xb90d1c10	-0.00013457262
234	0x383ef262	4.5525267e-05
235	0x39b8556e	0.00035158865
236	0xba459d98	-0.0007538437
237	0x39020aeb	0.00012401833
238	0x382429bb	3.913951e-05
239	0xb982ec65	-0.0002497166
240	0xb9d051fc	-0.00039733935
241	0xb9a15d0f	-0.00030777647
242	0xb95ee50c	-0.00021256896
243	0x39709992	0.00022945393
244	0x3998e902	0.00029165304
245	0xb98e17b8	-0.00027102022
246	0xb8f13069	-0.000115007926
247	0x394be4e0	0.00019444851
248	0x3a44bb97	0.00075047597
249	0x3906c5a1	0.00012852858
250	0x3a543474	0.00080949743
251	0x39cbb532	0.00038854178
252	0x39a24662	0.00030951487
253	0xb91c1319	-0.00014884434
254	0x375a3586	1.30062745e-05
255	0x3859cdca	5.1928488e-05
