checkpoints-private-cot-run1/checkpoint-5/value_head.pt (torch, 10109 bytes, 1 tensors)

weight f4 [1, 2048]
0	0xb9354830	-0.00017288397
1	0x39c24a15	0.0003705776
2	0x38afaa96	8.3764244e-05
3	0xba482fb7	-0.00076365046
4	0xb9b9006c	-0.00035286264
5	0xb9bc529b	-0.000359197
6	0xb8dd2d64	-0.00010546556
7	0x3a308463	0.00067335943
8	0xb98e607b	-0.00027156234
9	0xb9a22170	-0.0003092396
10	0xb9d0fc04	-0.00039860618
11	0x39af97f2	0.0003349181
12	0xb9d6666c	-0.0004089357
13	0x386dbb9a	5.667992e-05
14	0xb9a44872	-0.00031334494
15	0xb7304fa4	-1.050896e-05
16	0x39994480	0.0002923347
17	0x37669443	1.3743588e-05
18	0x378cd05b	1.6786324e-05
19	0x388043af	6.116123e-05
20	0x3a01999d	0.00049438496
21	0x39cf4d77	0.00039539833
22	0x3a239273	0.0006239779
23	0x380e9756	3.399638e-05
24	0x3933597b	0.00017104104
25	0xb9758fe3	-0.00023418623
26	0xb9c40947	-0.00037390945
27	0x39c6f41a	0.00037947373
28	0xb8872666	-6.444454e-05
29	0x39a8d895	0.00032204823
30	0x3991fcd3	0.00027844924
31	0x39e00a73	0.00042732395
32	0xb9917e9f	-0.00027750895
33	0x39189777	0.00014552275
34	0xb8d7a7ad	-0.00010283231
35	0xb985a9b0	-0.00025494164
36	0x3a1d3843	0.00059974584
37	0xba620716	-0.00086222717
38	0xb9b0829c	-0.00033666648
39	0xb9605f64	-0.0002139784
40	0x3956952a	0.00020464198
41	0x39fa81bf	0.00047780384
42	0x3971dfc0	0.00023066904
43	0x3997917c	0.0002890936
44	0x3920dde4	0.0001534145
45	0x390537fc	0.00012704724
46	0xb73f5a1d	-1.1405468e-05
47	0x399aff6a	0.00029563467
48	0x392ea80c	0.00016656535
49	0xb9f27e54	-0.0004625196
50	0xb8b52369	-8.637348e-05
51	0xb9c1a876	-0.00036937342
52	0x3991d5cd	0.0002781585
53	0x3920b981	0.00015327895
54	0x3798b319	1.820321e-05
55	0xb906fedc	-0.00012874178
56	0xb8b29835	-8.516052e-05
57	0xb904cbab	-0.00012664373
58	0x39020c4c	0.00012402347
59	0xb9909487	-0.00027576482
60	0x398a3176	0.00026358262
61	0xb8f08f6d	-0.00011470807
62	0xb988a374	-0.00026061723
63	0x38f780a1	0.00011801837
64	0x39d5e676	0.00040798233
65	0xb9d1676c	-0.00039940642
66	0xb9acdc65	-0.00032970603
67	0xb8b54467	-8.6434935e-05
68	0x388a4640	6.593438e-05
69	0x39b81c6d	0.00035116394
70	0xb8ff5531	-0.00012175216
71	0x39d1ad5c	0.0003999275
72	0xb9a37b1a	-0.000311815
73	0xb880fafb	-6.1502644e-05
74	0xb8283c96	-4.0110746e-05
75	0x3931d0f0	0.0001695787
76	0xb949209a	-0.00019180999
77	0xba253a38	-0.0006302926
78	0x38f6acf8	0.00011762412
79	0x399f30d7	0.00030363232
80	0xb9afcd6a	-0.00033531646
81	0xb84a1e3b	-4.8188707e-05
82	0xb702f760	-7.8062e-06
83	0x3935442e	0.00017286904
84	0xb9418281	-0.00018454531
85	0xb909b752	-0.0001313363
86	0xb95b067c	-0.00020887883
87	0xb9407ef8	-0.00018357846
88	0xba0454a3	-0.0005048012
89	0xb964a5c0	-0.00021805521
90	0xba493926	-0.0007676057
91	0x39202f0e	0.00015276318
92	0x394b8fab	0.00019413109
93	0x3949cee6	0.0001924593
94	0xb97978ee	-0.0002379154
95	0x39c42d21	0.00037417657
96	0xb9b7285f	-0.0003493456
97	0xb9e91434	-0.00044456276
98	0x3a14a9c3	0.00056710484
99	0x38c42bd9	9.3541756e-05
100	0x398d0612	0.00026898138
101	0xb9811eff	-0.0002462789
102	0xb9e7f311	-0.00044240852
103	0x3855a248	5.0934294e-05
104	0xb9becd72	-0.00036392693
105	0x38e7bcfe	0.00011050141
106	0xb9f9e5a9	-0.0004766409
107	0x39aa302e	0.00032460823
108	0xb92e7332	-0.00016636847
109	0x37442b49	1.16925885e-05
110	0xb8fea462	-0.000121422825
111	0x394f2b75	0.00019757247
112	0xb9ed1c56	-0.00045225275
113	0xb90054fe	-0.00012238693
114	0x398b2c96	0.00026545365
115	0xb9382e8e	-0.0001756495
116	0xb926033f	-0.00015832203
117	0xb95f6512	-0.00021304589
118	0xba34ee67	-0.000690198
119	0xb84b4e8d	-4.8472128e-05
120	0xba173845	-0.00057685777
121	0x399cd0d5	0.0002991023
122	0xb9978004	-0.00028896343
123	0xb990309c	-0.00027502037
124	0xb9d807b1	-0.0004120446
125	0x38319416	4.2338004e-05
126	0xb93bd181	-0.00017911756
127	0xb8d3d6aa	-0.00010101248
128	0xba1d9138	-0.0006010714
129	0x38b34b76	8.549441e-05
130	0xb995e4ec	-0.00028590055
131	0x37b6e5cc	2.1803098e-05
132	0xb973a3c5	-0.00023235295
133	0x393a861e	0.00017788305
134	0xb9240bfd	-0.00015644725
135	0x39b494e5	0.0003444321
136	0xb8d39473	-0.00010088915
137	0x3715e5b2	8.934572e-06
138	0xb8095f4c	-3.2752097e-05
139	0xb8140f70	-3.5300327e-05
140	0x39e6958b	0.00043980437
141	0xb93beab4	-0.00017921143
142	0x39d06665	0.0003974914
143	0x39bfc6cd	0.00036578477
144	0xb98e148b	-0.00027099656
145	0xb9bdb49f	-0.00036183462
146	0xb9b95318	-0.0003534786
147	0x36eb6c01	7.016119e-06
148	0xb8af8799	-8.369907e-05
149	0xb847f44f	-4.7672827e-05
150	0xb99cf49e	-0.00029936893
151	0xba2942e4	-0.0006456806
152	0xb8b0203e	-8.3983396e-05
153	0xb9a56bcb	-0.00031551564
154	0x38974543	7.213142e-05
155	0x390f372f	0.000136581
156	0xba101fa0	-0.00054978766
157	0x388609f1	6.39147e-05
158	0xba1d64d9	-0.0006004102
159	0xb9296bb0	-0.00016157213
160	0x38ee78be	0.00011371214
161	0xb8fe0f08	-0.000121144636
162	0x3a06987c	0.0005134416
163	0xb949b2fa	-0.00019235528
164	0xb9bff1d2	-0.0003661053
165	0x392aba7e	0.00016281937
166	0x395d3792	0.00021096904
167	0x399cf01d	0.00029933537
168	0x390cc6a4	0.0001342544
169	0x3a531214	0.0008051705
170	0xb9d85923	-0.00041265142
171	0xb9c86b3c	-0.00038226868
172	0x39a7d1a9	0.0003200893
173	0xb9b8024b	-0.00035096923
174	0xb836caff	-4.3581236e-05
175	0xb9ab75ab	-0.0003270333
176	0xb90ee6b6	-0.00013628122
177	0xba026dd3	-0.00049754715
178	0xb94015c2	-0.00018318652
179	0xb737df60	-1.09596585e-05
180	0x3a1116bb	0.0005534698
181	0xb84292e3	-4.6390003e-05
182	0xb8e2b142	-0.000108095366
183	0xb98cb4b7	-0.00026837524
184	0xb91483e3	-0.00014163512
185	0x39998805	0.00029283777
186	0x395cdf41	0.00021064004
187	0xb934175a	-0.00017174837
188	0xb9d2aa0f	-0.00040181025
189	0x39352562	0.00017275431
190	0x38ddb55e	0.000105718835
191	0xba288be6	-0.0006429538
192	0x39a267e5	0.00030976455
193	0xb9a21659	-0.00030915698
194	0xb88cd05a	-6.714529e-05
195	0xb9b6d806	-0.00034874695
196	0xb9aea72a	-0.00033312413
197	0xb96684d6	-0.00021983995
198	0x38bcf5b3	9.0103036e-05
199	0x37de1486	2.647402e-05
200	0xb965baf0	-0.00021908781
201	0x39298f7b	0.00016170547
202	0x3998d12b	0.00029147541
203	0x392c9117	0.00016457248
204	0x39b7051e	0.00034908293
205	0x3a7cfd05	0.000965074
206	0xb9865185	-0.00025619208
207	0x3a3329f5	0.000683456
208	0x39e4299b	0.00043518547
209	0x39903212	0.00027503126
210	0x39b3da46	0.00034304167
211	0x3963c995	0.00021723502
212	0x39420835	0.00018504339
213	0xb99d8d8a	-0.00030050828
214	0xba436663	-0.00074539165
215	0x39d8001b	0.0004119881
216	0x3a0c4f66	0.00053524075
217	0x382dd93d	4.1448733e-05
218	0x391e9bc9	0.00015126089
219	0xb9863c51	-0.0002560341
220	0x3a1289f5	0.0005590015
221	0xb6e3e141	-6.79135e-06
222	0x39267030	0.00015872787
223	0xba5a482c	-0.00083267945
224	0xb95c5ee1	-0.0002101618
225	0xba350313	-0.000690506
226	0xb8b8d630	-8.813699e-05
227	0x3a1f9cb2	0.0006088718
228	0xb9689c19	-0.00022183395
229	0x39a130f3	0.00030744783
230	0xb9a9025c	-0.0003223595
231	0x39ddf12c	0.00042332092
232	0x37430049	1.1622972e-05
233	0xb91c758c	-0.00014921109
234	0x380d36fd	3.366823e-05
235	0x39bf0105	0.00036431118
236	0xba4867b3	-0.0007644847
237	0x390b24b3	0.00013269745
238	0x38541b7e	5.0570343e-05
239	0xb9895f65	-0.0002620175
240	0xb9cffb2d	-0.00039669257
241	0xb9a0eb8f	-0.00030693083
242	0xb9695966	-0.00022253915
243	0x3969d274	0.00022299011
244	0x399b51e2	0.0002962491
245	0xb993a153	-0.0002815822
246	0xb8d8d7df	-0.00010339892
247	0x39575d0d	0.00020538662
248	0x3a476796	0.0007606683
249	0x39070d34	0.00012879522
250	0x3a572bb6	0.00082081126
251	0x39d268aa	0.00040132302
252	0x39a958c8	0.0003230034
253	0xb9148d8e	-0.00014167113
254	0x3640b36b	2.8714664e-06
255	0x386469a5	5.4457825e-05
