checkpoints-private-cot-run1/checkpoint-15/value_head.pt (torch, 10109 bytes, 1 tensors)

weight f4 [1, 2048]
00000000: ba17 85b8 f3bc e039 e754 b138 5360 65ba
00000010: 83bf adb9 78dc a7b9 e820 a138 1c0c 1e3a
00000020: 57a7 09ba 9d17 dbb9 3244 c8b9 8334 a339
00000030: 3470 5cba 177d a338 03ee bab9 2248 a5b8
00000040: 38fe ca39 66ea 31b9 1561 eb38 7549 8c39
00000050: 4e90 8639 1cbc fc39 1586 093a 1232 30b9
00000060: dbe9 9339 7245 2937 333a 47b9 aee9 fd39
00000070: 5c20 0fb9 3ea8 7c3a 6fa9 ad39 2e92 f139
00000080: a058 81b9 52a9 da38 d29a 89b8 6139 8bb8
00000090: d31f 0e3a e3ba 95ba a353 aeb9 e606 81b9
000000a0: 3f4a 9539 e55b f239 1295 a1b7 7dcd df39
000000b0: bf83 3839 ccef 9d39 c4fe 4539 5f23 323a
000000c0: 1f8d e939 1ef6 deb9 7840 d4b8 d160 51ba
000000d0: 0a45 af39 4978 d2b6 12ca e438 8c8b 32b9
000000e0: 7792 5038 41b6 a9b8 b974 8939 bebc 82b9
000000f0: 55d0 9839 3c43 66b9 9d2c 74b9 9c0b 91b9
00000100: b60a 3b3a 9b01 9ab9 1377 12ba 865f 0cb9
00000110: fc9d cc39 cf5a d139 a427 81b9 e3c8 bf39
00000120: a037 d2b9 73ed 7438 3481 f738 7171 3739
00000130: 8e46 8bb9 14f1 05ba 2016 06b9 332e 7738
00000140: fc0f cfb8 71b6 38b9 ed99 7237 a92f 7039
00000150: 6ab4 89b8 1635 3cb9 0167 9db9 ed34 fdb8
00000160: 5974 5fba ae04 12b9 2cad 6aba 3b31 2c39
00000170: 1cd6 9f39 8ff9 f339 65d2 abb9 c765 c239
00000180: c5f3 a3b9 da93 0aba 3ace c239 a732 8639
00000190: e6be e439 b4c7 e3b9 b88c 05ba dad3 bf38
000001a0: 0ee6 a7b9 6f30 0d39 e007 2aba 4612 d339
000001b0: 3fd5 d0b9 5dd0 1839 16e2 42b8 82d3 5b39
000001c0: 2d1e 0aba 4d57 2538 1bd5 d539 5822 6bb8
000001d0: 7235 94b8 0c55 a3b9 3c2b 07ba 6bc9 0b39
000001e0: ad29 09ba 7a65 f239 bcc3 69b9 dd61 d2b9
000001f0: 6742 a9b9 d60b 38b8 3206 1db9 7a2d 26b9
00000200: 7343 28ba 6e6d e039 abfc afb9 60f3 0e39
00000210: 3d58 67b9 6ffe 2f39 9a7e 93b9 cd50 8939
00000220: 802c a839 52d9 a9b8 a589 b8b8 1a10 6038
00000230: 5dda 493a c069 1fb9 743c 0b3a 5deb 343a
00000240: f8a3 55b9 c5bf 08b9 5638 a5b9 4a24 5c39
00000250: 8337 14b7 85cf d538 f831 b9b9 c3a7 31ba
00000260: af86 86b7 ccbb a9b9 b41e 9cb8 57c8 42b7
00000270: 9fce 2fba ab8f 5f39 9ef7 21ba 3a33 adb9
00000280: 2fea ac38 2f84 54b8 3d52 f439 380d 02b9
00000290: 6782 8db9 3493 e138 32f3 dcb7 5b92 cf39
000002a0: 0925 4cb9 8bc6 483a b89e 1cba 5ac7 0ab9
000002b0: cc0d bc37 9a3f 6eb9 fa1b 16b9 5312 48b8
000002c0: 533c 60b9 06d7 40b8 42f7 43b9 9736 a8b8
000002d0: be90 363a e94e d7b9 e488 6737 e709 d1b9
000002e0: 6123 81b9 b6d6 a339 0cdc 1b39 ee45 2cb9
000002f0: af1a c3b9 84d8 0cb9 386d fd38 eacc 2dba
00000300: 9620 0f3a 4b17 14ba bfa2 a0b8 2c9e aeb9
00000310: 4a00 1cba 2fb1 a6b9 bc3f aa38 0637 e138
00000320: 5128 ceb8 f66e 5139 bcc8 e839 04dc 3e39
00000330: 64e5 103a 0412 823a a22b dbb9 a7df 233a
00000340: b91d 083a 7139 b839 8efc 9139 eec5 0c3a
00000350: 07be 5f39 4f59 90b9 3e9c ebb9 4b16 123a
00000360: c8de 183a df04 1b38 cc45 d639 567b a5b9
00000370: f322 343a 563f b437 db07 8138 f3e7 53ba
00000380: 8d1c 9437 9ab4 0fba cabe 39b8 3c8e ba39
00000390: 6428 6eb9 823f ff39 8912 b6b9 e057 8239
000003a0: 1c2c 8ab9 dc2c cf38 d907 1838 c4ab 9739
000003b0: c083 85ba 1b55 3039 a45e d3b8 d1d9 51b9
000003c0: 6c47 54ba 92ae 0dba b82e c4b9 7006 e139
000003d0: b7e2 053a c60a acb9 5b6a d7b9 5f35 9a39
000003e0: 8be8 7d3a 3240 c639 536b 613a 017a d639
000003f0: 3827 ae39 6f61 41b9 d134 0cb9 dc0b 55b8
-6.3463536e-05 0.00042865388 8.455832e-05 -0.000875001 -0.0003313982 -0.00032016984 7.6832075e-05 0.0006029026
-0.0005251071 -0.00041788528 -0.00038197782 0.00031128907 -0.00084090536 7.7957455e-05 -0.00035654017 -7.881249e-05
0.0003871785 -0.00016967356 0.00011223756 0.0002675761 0.00025665987 0.00048205338 0.0005246115 -0.0001680332
0.0002821226 1.0089354e-05 -0.000189998 0.00048430025 -0.00013649598 0.0009638107 0.0003312337 0.00046076014
-0.00024670828 0.000104265884 -6.5615066e-05 -6.638724e-05 0.00054216123 -0.0011423494 -0.0003325018 -0.00024609937
0.00028474812 0.00046226304 -1.9262112e-05 0.00042686975 0.00017596687 0.00030124036 0.00018882292 0.0006795432
0.00044546367 -0.0004252651 -0.00010120956 -0.0007987144 0.0003343004 -6.2724907e-06 0.00010909526 -0.00017027388
4.972747e-05 -8.0924954e-05 0.0002621764 -0.00024936156 0.0002914692 -0.00021959556 -0.00023286273 -0.00027665205
0.000713508 -0.00029374365 -0.00055872014 -0.00013387026 0.0003902762 0.00039931244 -0.00024634332 0.0003658003
-0.00040095765 5.8395275e-05 0.00011801944 0.000174945 -0.00026564713 -0.0005109471 -0.00012787478 5.8932415e-05
-9.8735065e-05 -0.00017615572 1.4460163e-05 0.00022905938 -6.566274e-05 -0.00017948853 -0.00030022117 -0.00012073838
-0.0008524112 -0.00013925388 -0.0008952196 0.00016421538 0.00030486367 0.00046534507 -0.00032772418 0.00037078394
-0.00031271405 -0.0005286314 0.00037156214 0.0002559621 0.0004362978 -0.00043445604 -0.0005094516 9.14705e-05
-0.00032024126 0.00013464851 -0.0006486159 0.0004025867 -0.00039831732 0.00014573471 -4.6463763e-05 0.0002096426
-0.0005268779 3.942037e-05 0.00040785302 -5.606035e-05 -7.067145e-05 -0.00031153148 -0.0005156284 0.00013331107
-0.00052323454 0.00046233443 -0.00022293528 -0.00040127235 -0.00032283665 -4.388004e-05 -0.00014974995 -0.00015847935
-0.0006418742 0.0004280614 -0.00033566853 0.0001363284 -0.00022062748 0.00016784084 -0.0002813235 0.00026190878
0.00032076612 -8.099027e-05 -8.799442e-05 5.3420757e-05 0.000770008 -0.00015202817 0.00053114374 0.0006901527
-0.00020374346 -0.0001304141 -0.00031513226 0.00020994354 -8.834412e-06 0.00010195285 -0.0003532318 -0.00067770126
-1.6036762e-05 -0.00032374111 -7.4443786e-05 -1.1609946e-05 -0.0006706509 0.00021320458 -0.00061785604 -0.00033035298
8.245219e-05 -5.0667844e-05 0.0004660058 -0.0001240269 -0.00026990773 0.00010756255 -2.633929e-05 0.0003959116
-0.00019468753 0.000765898 -0.00059745787 -0.0001323497 2.2417771e-05 -0.00022721142 -0.00014315537 -4.770078e-05
-0.00021384777 -4.5976623e-05 -0.0001868876 -8.0210324e-05 0.0006964317 -0.00041066788 1.3800545e-05 -0.00039870964
-0.00024631157 0.00031249755 0.00014863926 -0.00016429249 -0.0003721318 -0.00013432099 0.00012084324 -0.0006629961
0.0005459873 -0.0005649223 -7.659708e-05 -0.00033305713 -0.0005950971 -0.00031794 8.118103e-05 0.00010739085
-9.830355e-05 0.0001997313 0.00044400047 0.00018201774 0.0005527346 0.0009923582 -0.00041803444 0.00062512833
0.00051924173 0.00035138012 0.00027844723 0.000537007 0.00021337728 -0.0002753236 -0.00044939102 0.000557278
0.0005831537 3.6959416e-05 0.00040869263 -0.00031563145 0.0006871663 2.1487165e-05 6.1526625e-05 -0.00080835744
1.765627e-05 -0.0005481929 -4.4285123e-05 0.00035582657 -0.00022712495 0.00048684707 -0.00034727555 0.00024861004
-0.00026354275 9.878885e-05 3.6246933e-05 0.0002892894 -0.0010186359 0.00016816372 -0.00010078892 -0.00020012936
-0.0008097801 -0.0005404736 -0.0003741884 0.0004292014 0.00051073305 -0.00032814423 -0.00041087237 0.00029412934
0.00096858357 0.00037813332 0.00085990614 0.0004090816 0.00033217086 -0.00018442211 -0.00013371116 -5.0794202e-05
