checkpoints-public-cot/checkpoint-15/value_head.pt (torch, 10109 bytes, 1 tensors)

weight f4 [1, 2048]
00000000: d3db 40b9 6a8c 9639 7fef 8db9 21d3 c7b9
00000010: 5b44 b5b7 384b f338 07f7 ecb9 06a0 bd39
00000020: 4719 3239 986b 39b9 387e eeb9 5db8 9e39
00000030: 6532 feb9 0864 8c37 2951 25b9 a574 dfb8
00000040: 0db4 ffb8 0d6f f139 b33a a139 08d4 bf37
00000050: a260 fab9 f79d 8139 44d0 bab9 86fc 213a
00000060: 56f6 1f38 aca0 7535 a2b5 84b9 02f8 b538
00000070: 37b6 3ab9 3a75 93b9 b7be 0f3a 2b4b 1b3a
00000080: 6cee 2739 8ffd 373a 524f 1239 57bc 83b9
00000090: e023 b4b9 92a6 05ba fdc6 2bb9 d8a3 c3b9
000000a0: e431 453a 5f48 a6b8 1d10 1a39 8006 ff39
000000b0: 051c 6639 ec89 f539 1234 86b9 91e5 b838
000000c0: b98d 0b3a 2d62 5638 ded2 3fba 64cc 4cb9
000000d0: 7588 3237 0e46 7d39 a201 00ba 43d8 42b8
000000e0: 8c9d 1ab8 869c 45b9 bec8 e9b9 866d b0b9
000000f0: d62e a638 6616 11b7 ffef f0b9 c3f6 c3b9
00000100: 6221 ee39 77a4 7739 cf93 b6b9 8a87 b139
00000110: d987 31b8 3b49 9239 d1b8 b4b9 647d d838
00000120: 92aa 07b8 bbf3 02ba 6abf 8eba d7bc e939
00000130: 4d00 afb9 d072 27b8 6f7a 94b8 aae1 a8b8
00000140: 019b 10ba a27c 1eb7 d56c 8739 e155 adb9
00000150: 28c9 c7b9 b9b6 2bb8 566b d938 698f abb8
00000160: 81d4 fab9 99c4 0339 489e 35b9 8353 fb39
00000170: 0de2 d339 efaa 91b7 faf9 7b39 33a9 b539
00000180: 3b17 65b9 6279 66b9 e97e 06b9 58c0 c839
00000190: add7 8238 5ee6 10ba 9b37 32ba ce66 aeb8
000001a0: 1e8b 4db9 00ee 8339 41af 95b9 3a71 9ab9
000001b0: 1622 7c39 f340 3339 a084 fe39 7e47 6b39
000001c0: ab26 5cb5 1ec2 da39 8ff2 2438 8dff 5239
000001d0: 9156 dab8 1f26 d3b8 7b76 a639 2ded 71b9
000001e0: 7adf 1cba 412f 1739 c377 d2b9 3472 bab8
000001f0: 65fe 9939 a5bc e538 f590 abb9 dc0d 26b8
00000200: bb1d 26ba 6ad1 c138 a1ac 8e39 ea55 9938
00000210: d5a6 01ba 4b87 283a b9c1 feb9 757e 9e39
00000220: 07a8 e1b9 fa7d 003a 9431 6036 aa2c 3fb9
00000230: d7e0 96b8 cbbd 18ba 5db1 9a39 e11b 7138
00000240: 9dd2 14b9 7912 8db8 0793 b5b9 3553 15ba
00000250: 8930 b6b9 1916 e1b8 fed5 a9b9 1e16 f837
00000260: 2582 d139 92ad f5b8 dc88 6939 472e 0cb9
00000270: 73a5 fcb7 fb4e 2239 6752 56b8 4586 a538
00000280: 385d 9ab9 1f3b 36b9 e82a b837 a4df 00ba
00000290: 7807 94b9 93a1 1939 a52b a039 7091 1d3a
000002a0: 4ee4 8738 040e 37b9 4896 6637 a287 d339
000002b0: 56d2 c837 bcff c7b9 ff60 89b8 5d7e 97b9
000002c0: 27f2 31ba b029 10b9 0d26 abb9 cb1c c739
000002d0: dffa a4b9 7441 c0b7 b8fe 2638 c6ea b0b9
000002e0: ab7e 4eb9 6efa 96b9 5371 8eb8 9170 fa37
000002f0: 09dc de39 4a07 5d39 b979 18b9 26a4 98b9
00000300: 59ec aa39 45b2 bdb5 9e52 5cb9 3ed2 0aba
00000310: c44a cab8 1ea3 89b7 9466 09b9 8804 1fba
00000320: cde1 0938 b808 3fb9 ea6c cfb8 6e03 fa39
00000330: d019 2f38 6893 e239 2112 49ba 48e0 0039
00000340: e8d6 9139 9189 3bb9 5a81 b938 a7a6 043a
00000350: 8853 c239 4cf2 85b9 1e4d 22b9 05db 023a
00000360: dd14 a139 e681 8039 59f2 ef39 9ce2 6f39
00000370: 9c20 cf39 2647 223a c3c5 f2b9 24b0 5139
00000380: 501d 93b9 a380 e8b9 b269 a539 299c 1d39
00000390: a7af 8fb9 b11c d838 961b a238 1566 2639
000003a0: f9ba a1b9 ec60 e337 2552 3c36 c602 b239
000003b0: f0d2 c1b9 5076 aa39 8d1b 8138 f7e7 45b7
000003c0: 4a71 d639 0133 8639 84d8 5a39 780d 1139
000003d0: aa12 00b9 d05e 8cb9 5aac 6cb9 121f 8236
000003e0: 9635 2d3a 92f8 a139 3d38 0c3a a67f f039
000003f0: 1c97 1e39 ad29 85b9 f0e2 63b9 d0a6 b539
-0.00018392438 0.00028714846 -0.00027072054 -0.0003811354 -2.1608712e-05 0.000116011535 -0.00045197477 0.00036168116
0.0001698482 -0.00017683057 -0.00045488938 0.0003027347 -0.00048484202 1.6735881e-05 -0.00015765861 -0.000106551954
-0.000121928846 0.0004604984 0.00030752047 2.2867709e-05 -0.00047755713 0.0002472249 -0.00035631855 0.00061792915
3.8137972e-05 9.150342e-07 -0.0002531233 8.6769476e-05 -0.00017806223 -0.00028125365 0.0005483436 0.00059239817
0.0001601518 0.0007018679 0.00013953194 -0.0002512659 -0.00034359004 -0.0005098368 -0.0001638196 -0.0003731537
0.0007522388 -7.928977e-05 0.00014692587 0.00048642233 0.00021944947 0.000468328 -0.00025597267 8.816564e-05
0.00053235475 5.111301e-05 -0.00073174934 -0.00019531097 1.0641398e-05 0.00024154058 -0.0004883056 -4.6454614e-05
-3.6863188e-05 -0.00018845694 -0.00044590788 -0.00033650937 7.924221e-05 -8.6478885e-06 -0.00045955178 -0.0003737715
0.0004541977 0.00023617024 -0.0003482387 0.00033861055 -4.2326606e-05 0.0002790185 -0.00034469974 0.000103230384
-3.2345364e-05 -0.0004995425 -0.0010890786 0.0004458192 -0.00033378825 -3.992283e-05 -7.079995e-05 -8.0528975e-05
-0.00055162614 -9.446552e-06 0.00025830293 -0.00033061116 -0.0003810611 -4.093975e-05 0.00010367359 -8.1806276e-05
-0.00047842044 0.00012566372 -0.0001732047 0.00047936672 0.00040413477 -1.7364944e-05 0.00024030349 0.00034649073
-0.00021847796 -0.00021979728 -0.00012826514 0.0003829028 6.239056e-05 -0.00055274914 -0.0006798447 -8.3161154e-05
-0.00019602149 0.0002516359 -0.0002855007 -0.0002945753 0.00024045291 0.00017094966 0.0004854547 0.0002243798
-8.2012656e-07 0.0004172483 3.9326547e-05 0.00020122361 -0.00010411174 -0.00010068365 0.00031750262 -0.00023071906
-0.00059842283 0.00014418086 -0.0004014355 -8.890443e-05 0.00029371973 0.00010954709 -0.00032723663 -3.959039e-05
-0.00063368276 9.2419636e-05 0.0002721297 7.311611e-05 -0.00049458194 0.00064288516 -0.0004859099 0.00030230326
-0.00043040534 0.00049015845 3.340746e-06 -0.00018231818 -7.194437e-05 -0.0005826621 0.00029505315 5.748484e-05
-0.0001419284 -6.726845e-05 -0.00034632554 -0.0005696298 -0.00034749907 -0.00010732952 -0.00032393628 2.9574203e-05
0.00039960552 -0.000117148404 0.00022271596 -0.0001336868 -3.0117784e-05 0.00015478946 -5.109832e-05 7.892823e-05
-0.00029442622 -0.00017378897 2.1954489e-05 -0.00049161376 -0.00028234324 0.00014651408 0.00030550096 0.00060107466
6.479827e-05 -0.00017457461 1.3744058e-05 0.0004034611 2.3939803e-05 -0.00038146775 -6.550736e-05 -0.00028895112
-0.00067880977 -0.0001374844 -0.00032644012 0.0003797769 -0.0003146743 -2.2918663e-05 3.981471e-05 -0.00033744256
-0.00019692878 -0.00028796814 -6.792196e-05 2.985474e-05 0.0004250708 0.00021078918 -0.00014541195 -0.00029114
0.0003260102 -1.4133481e-06 -0.00021011612 -0.0005295611 -9.646037e-05 -1.640763e-05 -0.00013103551 -0.0006066044
3.287364e-05 -0.00018218427 -9.890816e-05 0.0004768627 4.174729e-05 0.00043215905 -0.0007670243 0.00012290583
0.00027816673 -0.00017884957 8.845581e-05 0.00050602335 0.000370648 -0.00025548262 -0.00015478252 0.0004991743
0.00030723857 0.00024510844 0.00045766195 0.00022877235 0.00039506413 0.00061904115 -0.0004630518 0.0001999741
-0.00028059864 -0.0004434633 0.00031550002 0.00015030861 -0.00027405957 0.00010305027 7.7299e-05 0.00015869022
-0.00030847618 2.7105641e-05 2.8061997e-06 0.00033952872 -0.0003696899 0.00032513076 6.156331e-05 -1.17961235e-05
0.00040901668 0.00025596473 0.00020870758 0.00013833295 -0.00012213984 -0.00026773522 -0.0002257092 3.877919e-06
0.0006607411 0.00030893512 0.00053489563 0.00045871473 0.00015124347 -0.00025398788 -0.00021732948 0.00034647295
