checkpoints_norewardshape/checkpoint-5/value_head.pt (torch, 10109 bytes, 1 tensors)

weight f4 [1, 2048]
-0.000485633 0.0007146555 0.0005448717 -0.00012844321 0.00020107652 -0.00052683376 0.0005892739 1.6556716e-05
-0.000100780984 0.0005198441 0.00038871146 0.00024398112 -0.0005689755 -0.0005387918 -0.00045776184 -0.00023946277
0.0006180035 -0.0006201217 0.00040019033 -0.00042431356 -0.000281695 0.0005461788 -0.00020854142 -3.4672834e-05
-0.0007582858 -0.00061293895 -0.00018085355 8.988507e-05 -0.0004368183 0.00035191418 0.00025078017 -0.00040952806
-0.0003877999 0.00044944658 -0.00016314197 -0.00025817275 0.0007035733 -0.000235178 -0.00042780285 -0.00049733784
-0.00036532927 -0.00059106 0.00032196593 0.0004185806 0.00043287783 -0.00021905794 0.0004370832 0.00045316858
0.0005132517 -0.0004975455 0.00062167214 -0.00022343738 0.00042931605 -0.00060574594 -0.0005158865 0.00027830852
-0.00044284036 -0.0003932996 0.00028771872 0.00051759527 -0.00051259145 9.296551e-05 -0.0007510465 0.00040716724
-0.00044188465 -0.00041075516 0.00038019946 0.00030018654 0.00069194514 0.00079632236 0.00040519342 0.00058362435
-0.00046630658 -0.0005118548 0.00063595397 -0.0003022177 -0.0008320657 1.4639604e-05 -8.666529e-05 -0.0007222037
-0.00083537627 0.00027179962 0.000568968 -0.00013701466 -0.00034237053 -0.00026548718 0.0004768116 0.0006338117
-0.00035703243 -0.00019094467 -0.00011328674 0.0005958934 0.00022718187 -0.00033569406 -0.00027419688 -0.0004615773
2.9123225e-06 -0.0002878256 0.0005095748 0.000658383 0.0003741047 0.000161716 -2.5395906e-05 -4.470346e-05
-0.0001183078 -0.00023068354 -8.577165e-05 4.934354e-05 0.00038086995 -0.00017882015 0.0006041595 0.0002982074
-0.0006478084 0.00049121346 0.00051322277 0.00023389564 -4.8169368e-05 -0.0004380661 -0.00031515717 -0.00017544038
-0.00074171036 -0.00057079556 -0.0007470581 0.00021275177 -0.00039761802 6.745854e-05 -0.0008642607 0.00016562494
-0.00060168916 -0.0001157595 -0.00042051257 0.0004637128 0.00016952597 7.96725e-05 0.00021694408 0.000671677
-0.00015996862 6.934005e-05 -4.9077353e-05 -0.0005304244 -8.9801935e-05 0.00028182834 0.0005844314 0.0002814736
-0.00026302124 -0.0004034723 -0.00033934406 0.0004948273 -0.00052111986 -0.00032083073 -0.00041019978 -0.00032025177
-0.0006413411 -0.00029833417 0.00064838916 -0.00036850205 -0.0007993681 -0.00026336702 -0.0003957551 -0.00011028691
-0.00037790465 -1.06907555e-05 -0.00052987674 -0.00016469468 -0.0005395819 0.00042789875 -0.0006451774 0.00025705472
-0.00025733653 -0.0003084353 0.00013198801 0.0005791931 -0.00025343223 0.00010754922 0.00052290584 0.00057239627
-0.00019743344 -0.00042222912 -0.0005039243 0.00029538514 0.00016590754 0.00045615723 -0.000771903 0.00023198538
0.00018544051 0.00038042554 -0.0006440441 0.00026004636 0.00048894074 -0.00021728632 0.00038205308 -0.00023571588
0.00035052974 -0.0003334628 0.00037264798 -0.00018101397 0.00024039458 0.0006971936 0.00030862706 -0.0003857458
0.00013937055 -0.00039185738 0.00048938364 0.00069297914 -0.00011518433 0.00020216758 -0.00042543394 0.00037146287
5.540343e-05 -0.0002555898 -0.0005207779 0.00024304891 3.200445e-05 -8.551924e-06 -0.00037786897 -0.00019104057
0.00017651319 -0.000512096 0.00047041703 6.591478e-05 0.00044144993 -0.00025184389 -0.0006211524 -9.0221154e-05
-0.00064320874 0.0006861324 -0.00019973722 -7.6205804e-05 -9.214727e-05 0.0002106164 0.0002654853 -0.00024086675
0.00016457729 -0.00042818065 -0.00042579958 0.00057543913 -0.0006932824 -0.00012616045 0.0004507227 -0.0004609781
0.00014425674 0.00016229165 -0.00035673412 -0.0006894681 0.00057109114 -0.00048178312 -0.0005677018 -0.0007435857
0.00047445443 -0.00066437543 0.00056427397 0.00025655696 0.00038739434 -0.00016803763 7.0251284e-05 0.00025356072
00000000: 8f9c feb9 b857 3b3a b9d5 0e3a b6ae 06b9
00000010: 11d8 5239 371b 0aba 8179 1a3a 47e3 8a37
00000020: 615a d3b8 2646 083a f8cb cb39 2fd5 7f39
00000030: 4d27 15ba b53d 0dba c1ff efb9 4c18 7bb9
00000040: 8301 223a aa8f 22ba a3d0 d139 6776 deb9
00000050: 76b0 93b9 702d 0f3a e9ab 5ab9 ac6d 11b8
00000060: b3c7 46ba a3ad 20ba 81a3 3db9 ae80 bc38
00000070: c304 e5b9 1f81 b839 257b 8339 edb5 d6b9
00000080: 9f51 cbb9 b3a3 eb39 1711 2bb9 5c5b 87b9
00000090: 0170 383a 1d9a 76b9 ba4a e0b9 c75f 02ba
000000a0: aa89 bfb9 5df1 1aba 89cd a839 f074 db39
000000b0: e1f3 e239 ebb2 65b9 5028 e539 4297 ed39
000000c0: bd8b 063a b76d 02ba b6f7 223a 844a 6ab9
000000d0: d315 e139 ecca 1eba 8f3c 07ba f0e9 9139
000000e0: 072d e8b9 c733 ceb9 f4d8 9639 3baf 073a
000000f0: 6e5f 06ba 7af6 c238 e1e1 44ba 1079 d539
00000100: c1ac e7b9 a05a d7b9 8255 c739 5b62 9d39
00000110: a763 353a 4ac0 503a 2470 d439 5efe 183a
00000120: 9c7a f4b9 ff2d 06ba 26b6 263a f972 9eb9
00000130: fc1e 5aba 9f9c 7537 13c0 b5b8 4552 3dba
00000140: 27fd 5aba 5480 8e39 cc26 153a 98ab 0fb9
00000150: 3280 b3b9 1631 8bb9 92fc f939 6226 263a
00000160: 1530 bbb9 5238 48b9 5b94 edb8 bb35 1c3a
00000170: ab37 6e39 1800 b0b9 15c2 8fb9 dbff f1b9
00000180: 5271 4336 4ce7 96b9 fc94 053a 5697 2c3a
00000190: 7c23 c439 4f92 2939 4b09 d5b7 fa7f 3bb8
000001a0: 041c f8b8 a4e3 71b9 4ee0 b3b8 39f6 4e38
000001b0: 80af c739 ab81 3bb9 7560 1e3a b858 9c39
000001c0: b0d1 29ba c7c4 003a cc89 063a e241 7539
000001d0: 7709 4ab8 3dac e5b9 ae3b a5b9 6bf6 37b9
000001e0: 576f 42ba 71a1 15ba 38d6 43ba 1e16 5f39
000001f0: 6377 d0b9 8778 8d38 8e8f 62ba 9bab 2d39
00000200: adba 1dba e9c3 f2b8 3e78 dcb9 7a1e f339
00000210: c8c2 3139 d915 a738 7c7b 6339 7b13 303a
00000220: 40bd 27b9 a86a 9138 68d8 4db8 2e0c 0bba
00000230: 0c54 bcb8 5cc2 9339 8734 193a bf92 9339
00000240: 1de6 89b9 2389 d3b9 fde9 b1b9 4cb7 013a
00000250: c39b 08ba 2c35 a8b9 1510 d7b9 77e7 a7b9
00000260: ac1f 28ba bc69 9cb9 a9f8 293a 8233 c1b9
00000270: af8c 51ba 8614 8ab9 5a7d cfb9 d549 e7b8
00000280: 8121 c6b9 725c 33b7 6de7 0aba e4b1 2cb9
00000290: ba72 0dba 9957 e039 1f21 29ba 4dc5 8639
000002a0: 20eb 86b9 7cb5 a1b9 4366 0a39 fed4 173a
000002b0: 19df 84b9 0c8c e138 9e13 093a dd0c 163a
000002c0: 2306 4fb9 a25e ddb9 ca19 04ba ecdd 9a39
000002d0: 77f7 2d39 6328 ef39 8959 4aba 1a41 7339
000002e0: cf72 4239 da73 c739 11d5 28ba d556 8839
000002f0: 422c 003a 5ad7 63b9 4c4e c839 802a 77b9
00000300: 4ec7 b739 9fd4 aeb9 f75f c339 91ce 3db9
00000310: 6e12 7c39 dfc3 363a 39cf a139 ed3d cab9
00000320: ff23 1239 3572 cdb9 fb49 003a 0ba9 353a
00000330: 1e8f f1b8 f2fc 5339 c70c dfb9 e7c0 c239
00000340: fb60 6838 af00 86b9 d084 08ba f2da 7e39
00000350: 843c 0638 3c7a 0fb7 b71c c6b9 1052 48b9
00000360: 6616 3939 2e3e 06ba 4ea2 f639 ba3b 8a38
00000370: 6872 e739 ea09 84b9 d5d4 22ba 1d35 bdb8
00000380: 029d 28ba 91dd 333a 8d70 51b9 aed0 9fb8
00000390: 303f c1b8 e9d8 5c39 d530 8b39 2d91 7cb9
000003a0: 6192 2c39 6f7d e0b9 da3d dfb9 11d9 163a
000003b0: 65bd 35ba f049 04b9 fa4e ec39 6faf f1b9
000003c0: a043 1739 d52c 2a39 0b08 bbb9 6cbd 34ba
000003d0: 47b5 153a d697 fcb9 d3d1 14ba 31ed 42ba
000003e0: 32c0 f839 7b29 2eba c9eb 133a 7e82 8639
000003f0: 301b cb39 4233 30b9 df53 9338 58f0 8439
